sequencing_models/bsf_DDQN.pt (torch_old, 43117 bytes, 16 tensors)

0.0.weight f4 [5, 5]
1.0682815 1.0901823 1.021672 1.0170674 1.172235 1.1546875 1.1361907 1.0741109
0.9617839 1.2681142 1.0573847 1.104481 1.1333729 1.0056547 1.163279 1.0437146
1.0854561 0.9126493 1.0361993 0.96901065 1.1435388 1.174689 1.0621835 1.3252407
1.0708442
00000000: 73bd 883f 188b 8b3f 26c6 823f 442f 823f
00000010: cc0b 963f cdcc 933f b26e 913f 777c 893f
00000020: 7837 763f 9151 a23f 6258 873f a25f 8d3f
00000030: 5d12 913f 4bb9 803f 54e6 943f 7198 853f
00000040: 3af0 8a3f 62a3 693f 2ea2 843f 1511 783f
00000050: 7b5f 923f 365c 963f a1f5 873f 7da1 a93f
00000060: 6c11 893f

0.0.bias f4 [5, 5]
-0.015144275 0.09453167 0.10595626 -0.0405886 -0.20593008 0.024027642 0.090782285 0.11664998
-0.048071317 -0.15905815 -0.0022474704 0.12888801 0.07759709 -0.056878548 -0.15089284 -0.031457316
0.1070587 0.020638399 -0.0924279 -0.050518714 -0.09385616 -0.039688297 -0.0044698245 -0.18026786
0.009162349
00000000: b11f 78bc d299 c13d 98ff d83d 3b40 26bd
00000010: 56df 52be 9ed5 c43c 10ec b93d 2fe6 ee3d
00000020: 6ee6 44bd 24e0 22be 4c4a 13bb 38fb 033e
00000030: 39eb 9e3d 7bf9 68bd a783 1abe 63d9 00bd
00000040: 9741 db3d dc11 a93c d74a bdbd b6ec 4ebd
00000050: a937 c0bd 3290 22bd 9b77 92bb 2398 38be
00000060: ad1d 163c

1.0.weight f4 [64, 25]
-0.08756781 0.11747816 0.13104862 0.12375794 -0.03840593 -0.03687186 0.13817824 0.201889
-0.09665851 -0.21688874 -0.12815261 0.07942454 -0.00086808496 -0.14308102 0.09471775 0.0650601
-0.18260852 -0.06780146 0.17462336 0.1012245 0.15638173 -0.017520586 0.13361087 -0.30939847
-0.116117954 4.131628e-06 0.10086875 -0.06375451 0.12971266 -0.17875966 -0.07689819 0.038018778
0.17559129 -0.045192387 -0.1490413 0.038691737 -0.20402984 -0.21278867 -0.04398069 -0.03212136
-0.002682395 -0.13644436 0.038839716 -0.16141863 -0.13478275 0.11422132 -0.09983525 -0.088861436
0.22139665 -0.2101679 -0.10281144 0.022070711 -0.19073905 0.108560584 -0.14281659 0.00022678026
0.15614133 -0.009061822 0.15721557 -0.022304408 -0.17150153 0.19812006 0.24983127 0.15254447
0.17347316 -0.050850995 0.17886072 -0.038500868 -0.12833159 -0.045005344 -0.04830405 -0.12680636
-0.046460036 -0.038149536 0.09170614 0.14061847 0.030779127 -0.0016168564 0.20059024 0.036438197
-0.17931178 -0.21749544 -0.17131603 0.15315874 0.1749463 0.18453422 -0.134017 0.104478866
0.028120574 -0.07332617 0.035361838 0.106121734 -0.08983821 -0.16183639 -0.031929534 0.035260517
0.14648423 0.11933429 -0.089308776 0.05959088 0.085505895 0.06470361 -0.07172069 0.12125776
0.09771282 0.106118344 0.14612016 -0.06123695 0.1190378 0.2591542 0.036990937 -0.29193473
-0.020631753 0.12085945 0.013111772 -0.13886687 -0.169374 -0.014233822 0.16721828 -0.07700524
0.15766631 -0.02393461 0.1738035 -0.29695904 0.043566097 -0.027918134 0.21422493 -0.17745401
-0.055217646 0.08871394 0.10765325 -0.13520652 -0.19275935 0.093417086 -0.15083718 -0.039760396
-0.110021755 -0.0560794 0.12803817 0.029426614 -0.12718038 -0.09318983 -0.08818711 -0.19076793
-0.04205678 -0.12734172 0.172578 -0.06280608 0.028556392 0.067775056 -0.13295588 0.049234618
0.1001009 -0.05068096 -0.4171892 0.30728287 0.101767294 -0.2857068 -0.011609152 0.022254827
-0.14622279 0.015473247 0.14979714 -0.012503288 -0.06333105 -0.09928848 0.07650243 -0.0070896675
-0.06949725 0.047122262 -0.14127716 -0.10342912 -0.12913999 -0.13482617 -0.017920243 0.005541551
-0.04252668 -0.11087108 0.031997442 -0.03968067 0.16364598 0.10615651 0.09127347 0.020596134
0.041342933 -0.17773107 -0.1124476 -0.13583763 0.16990882 0.092659056 -0.05713447 -0.2039393
-0.20903574 0.099071726 0.10163091 0.10820715 -0.021194153 0.26498684 0.18792523 0.14625481
0.13735645 -0.20985514 0.16837856 -0.058939334 -0.14123361 -0.026456727 -0.1175679 0.048101205
0.13756663 -0.15511759 0.043828506 -0.006479632 -0.22708833 0.01913645 0.0738885 -0.12003883
-0.19429019 0.02795013 0.16674693 -0.11833983 -0.056068357 0.011637497 0.023964865 0.18770912
-0.096682124 -0.053842414 -0.003530999 0.123059034 -0.013245804 -0.0011372542 0.16823615 -0.07594453
0.00030798517 0.14717752 -0.2123086 -0.09575079 0.15322007 0.08164349 -0.13606115 0.03369471
-0.16464372 -0.16780013 0.037921797 0.03314904 -0.12038502 -0.094274275 0.00042501246 -0.15446989
0.038126197 -0.12297768 -0.15648416 0.024115551 0.0219513 0.040665217 -0.1406098 0.10285194
00000000: c156 b3bd 6498 f03d 9c31 063e ce74 fd3d
00000010: 894f 1dbd f306 17bd 997e 0d3e fdbb 4e3e
00000020: e6f4 c5bd 1518 5ebe 703a 03be 55a9 a23d
00000030: 3290 63ba d583 12be 61fb c13d 3b3e 853d
00000040: bafd 3abe 7edb 8abd 77d0 323e ca4e cf3d
00000050: 8822 203e 5587 8fbc 4ad1 083e 7a69 9ebe
00000060: 40cf edbd 6aa2 8a36 4694 ce3d b991 82bd
00000070: 65d3 043e c60c 37be cc7c 9dbd 94b9 1b3d
00000080: 34ce 333e a71b 39bd 489e 18be 3a7b 1e3d
00000090: 33ed 50be 46e5 59be 1925 34bd b091 03bd
000000a0: 1fcb 2fbb 12b8 0bbe 6516 1f3d ed4a 25be
000000b0: 7d04 0abe deec e93d 6c76 ccbd fcfc b5bd
000000c0: ceb5 623e 4136 57be ce8e d2bd a3cd b43c
000000d0: 1951 43be 0355 de3d 833e 12be ddcb 6d39
000000e0: 83e3 1f3e 0978 14bc 1efd 203e bcb7 b6bc
000000f0: 199e 2fbe fcdf 4a3e c5d3 7f3e 9e34 1c3e
00000100: f3a2 313e 2249 50bd 4427 373e 16b3 1dbd
00000110: 5b69 03be 8657 38bd 78da 45bd 87d9 01be
00000120: e14c 3ebd b042 1cbd 6ed0 bb3d 4afe 0f3e
00000130: 8224 fc3c b3ec d3ba 8767 4d3e 3840 153d
00000140: 829d 37be 20b7 5ebe 786d 2fbe a5d5 1c3e
00000150: 1f25 333e 8af6 3c3e c13b 09be 04f9 d53d
00000160: 1e5d e63c 082c 96bd 93d7 103d 5a56 d93d
00000170: 18fd b7bd 70b8 25be 8bc8 02bd 556d 103d
00000180: f6ff 153e 8965 f43d 85e7 b6bd 9115 743d
00000190: b71d af3d 5483 843d 4ce2 92bd fd55 f83d
000001a0: a91d c83d 9354 d93d 86a0 153e 99d3 7abd
000001b0: 17ca f33d dcaf 843e cf83 173d 7878 95be
000001c0: ec03 a9bc 2985 f73d c2d2 563c 1e33 0ebe
000001d0: 6170 2dbe fa34 69bc 453b 2b3e ecb4 9dbd
000001e0: 4773 213e 8412 c4bc 8bf9 313e 040b 98be
000001f0: 5d72 323d 92b4 e4bc c85d 5b3e 81b6 35be
00000200: e62b 62bd a7af b53d 4f79 dc3d 9473 0abe
00000210: b562 45be 7551 bf3d 1075 1abe ccdb 22bd
00000220: 1653 e1bd 83b3 65bd 701c 033e 1510 f13c
00000230: 933b 02be 4fda bebd 729b b4bd ab58 43be
00000240: bb43 2cbd de65 02be 4ab8 303e 79a0 80bd
00000250: 18ef e93c a6cd 8a3d 9625 08be 3daa 493d
00000260: b301 cd3d d796 4fbd d399 d5be 2e54 9d3e
00000270: 5f6b d03d 2948 92be 5034 3ebc c14f b63c
00000280: 6dbb 15be 8083 7d3c 6c64 193e 97da 4cbc
00000290: b6b3 81bd c257 cbbd 4ead 9c3d 7150 e8bb
000002a0: 9354 8ebd 4603 413d f6aa 10be a5d2 d3bd
000002b0: 463d 04be df0f 0abe 79cd 92bc e695 b53b
000002c0: 7530 2ebd 6010 e3bd c00f 033d 3388 22bd
000002d0: d092 273e 9668 d93d 96ed ba3d 39b9 a83c
000002e0: 3557 293d 22ff 35be ed4a e6bd 0519 0bbe
000002f0: 94fc 2d3e 08c4 bd3d d605 6abd 77d5 50be
00000300: 770d 56be 1ee6 ca3d de23 d03d b69b dd3d
00000310: 5c9f adbc 5bac 873e 796f 403e d2c3 153e
00000320: 2ba7 0c3e 44e4 56be 6e6b 2c3e 5f6a 71bd
00000330: 8b9f 10be c7bb d8bc 70c7 f0bd c505 453d
00000340: 44de 0c3e 25d7 1ebe 8585 333d 1853 d4bb
00000350: d889 68be 0bc4 9c3c db52 973d ebd6 f5bd
00000360: 02f4 46be acf7 e43c b5bf 2a3e 275c f2bd
00000370: efa7 65bd 33ab 3e3c f751 c43c d236 403e
00000380: 4701 c6bd dd89 5cbd 5568 67bb 6006 fc3d
00000390: ee04 59bc eb0f 95ba 1946 2c3e ce88 9bbd
000003a0: 1279 a139 b4b5 163e 6d67 59be fd18 c4bd
000003b0: b9e5 1c3e b434 a73d 9d53 0bbe 7703 0a3d
000003c0: 5d98 28be ccd3 2bbe e353 1b3d 4ac7 073d
000003d0: 6c8c f6bd df12 c1bd 35d4 de39 5b2d 1ebe
000003e0: 372a 1c3d b9db fbbd 623d 20be fa8d c53c
000003f0: 36d3 b33c 9290 263d 04fc 0fbe 0aa4 d23d

1.0.bias f4 [64]
0.25906456 0.1888713 -0.01188807 -0.17136997 0.080272615 -0.05963617 0.46514788 0.0021799267
-0.12311413 -0.18434632 -0.19836088 0.14820236 -0.1378473 -0.061808478 -0.11665782 0.1620555
0.07847265 -0.07566737 -0.013225104 -0.13162634 0.23230016 -0.1553797 -0.13407922 0.18597569
0.05732845 0.09801374 0.21404356 0.05070388 0.15273236 0.018047014 0.20227875 -0.32842344
-0.033845697 0.25764856 0.060053445 -0.16048452 0.1617191 0.08010812 0.2609298 0.107931204
0.15230411 0.08214692 0.13510267 0.18524437 -0.09263708 -0.21044025 0.006132202 -0.06918146
0.13565199 -0.087779865 0.11323522 0.0003003574 0.18209581 0.017656852 -0.16956556 0.013105981
-0.135261 0.19900587 -0.074698225 0.0064776703 -0.13452844 0.10697627 -0.10180002 -0.20637561
00000000: 1ca4 843e 7a67 413e 2ec6 42bc 9c7b 2fbe
00000010: f865 a43d 0e45 74bd dd27 ee3e 1add 0e3b
00000020: 4323 fcbd 48c5 3cbe 1d1f 4bbe 5cc2 173e
00000030: d827 0dbe e32a 7dbd 4cea eebd e1f1 253e
00000040: 45b6 a03d 7ef7 9abd 1bae 58bc 0ec9 06be
00000050: 18e0 6d3e db1b 1fbe 104c 09be 6970 3e3e
00000060: 3dd1 6a3d 6dbb c83d 3c2e 5b3e dfae 4f3d
00000070: df65 1c3e 55d7 933c 2922 4f3e 1e27 a8be
00000080: c9a1 0abd 83ea 833e 9afa 753d 0e56 24be
00000090: b199 253e ba0f a43d 9798 853e 090b dd3d
000000a0: 9cf5 1b3e a53c a83d 5b58 0a3e b3b0 3d3e
000000b0: 82b8 bdbd a67d 57be a4f0 c83b 02af 8dbd
000000c0: 5be8 0a3e eec5 b3bd dee7 e73d 4a79 9d39
000000d0: 5377 3a3e 1aa5 903c 98a2 2dbe 78ba 563c
000000e0: dc81 0abe 32c8 4b3e 62fb 98bd a342 d43b
000000f0: d3c1 09be 6016 db3d 877c d0bd 2154 53be

1.2.weight f4 [48, 64]
-0.06157516 0.035377618 0.07405938 0.004996198 -0.08954885 0.12149087 0.12112198 0.011901417
-0.12689939 -0.018312285 -0.03138183 -0.022820642 -0.0035108514 -0.07068937 0.09708462 0.06782459
-0.1249158 0.06540652 -0.033102687 -0.043050125 -0.10732257 -0.06849829 0.035132952 0.048358127
-0.12706985 0.04581332 -0.105455026 -0.050592516 -0.09826876 0.09444432 -0.007349676 0.02936769
-0.029653206 -0.022713741 0.020729307 0.058665104 -0.05448171 -0.012602784 0.08274435 0.048876144
-0.02875111 0.022799356 0.02523493 -0.044375867 0.07688321 0.044163674 -0.10809155 0.04997353
0.099792965 -0.060361363 -0.09589069 -0.081794664 -0.012112915 -0.008937528 0.090973556 0.09823136
0.09062505 0.11020421 -0.116650365 0.1102087 -0.047642045 -0.037669204 -0.097998016 0.055282764
0.06200419 0.034213625 -0.09385096 0.013511938 -0.10201361 -0.026650002 0.0018602794 -0.029057719
0.005320083 0.10548802 -0.036884297 0.05924826 0.04019893 0.106387064 0.050525468 0.0053636394
0.039186493 0.0018112604 -0.06476688 0.08047553 0.07490828 0.11863212 0.1412996 -0.086416185
-0.0920282 0.046318363 0.06680025 -0.0942731 -0.120453335 -0.007668398 -0.00811173 0.097309396
-0.08472972 0.09065337 0.017531777 -0.054467354 0.010623703 0.10151838 -0.130861 -0.07256765
0.11740337 0.047756214 0.111270644 0.095296815 -0.17386028 -0.072036736 -0.043303855 0.08669878
-0.04024916 -0.08748609 -0.11426123 0.11721523 0.001479986 -0.020956095 0.07008768 0.117172495
0.0110287815 -0.014782301 0.109156966 -0.016920332 -0.05851998 0.04309252 0.016012367 -0.024114072
0.030431138 0.062756196 0.056492496 -0.040264796 -0.10743729 -0.052290242 -0.1142983 0.009055077
0.11579239 0.059029207 0.06700717 -0.10695086 0.031941913 -0.099918805 -0.10450901 -0.130228
0.12623328 0.07231539 0.005978556 -0.12700102 -0.045483038 0.06891961 0.009415213 0.065869205
-0.10819712 0.03187224 -0.069626674 0.081973456 -0.10151558 -0.0073876157 0.022767771 0.07114374
0.089541264 0.080476604 -0.060583197 0.040680457 -0.009582013 0.138303 0.08331831 0.019213386
0.005426041 0.059496954 0.00047556433 0.04128238 0.030225942 -0.12507996 -0.11928315 -0.063398674
-0.007839114 0.11725329 0.09178408 0.09234329 -0.09226356 0.13863605 0.027381497 -0.043367147
-0.09594401 -0.08135325 0.112453 0.09251274 0.065281175 -0.020949982 -0.031335626 0.053294502
-0.13552228 -0.054630727 -0.112264164 -0.055830076 0.0707395 -0.11040321 0.052325796 0.10780043
-0.034206375 0.10517821 -0.022767799 -0.012803443 -0.089060664 0.08480433 0.03365842 0.08703503
-0.08060722 -0.082716495 0.030060533 0.05937617 -0.05200905 0.07706566 -0.07685212 0.0105689475
-0.075503446 -0.07691677 -0.108494274 0.061485652 -0.04451861 -0.027027834 -0.115850694 -0.13166788
0.08553305 -0.05873667 -0.09409076 0.063167475 0.034320105 0.12679476 0.03484533 -0.07665224
0.10086232 0.13310799 -0.018904278 -0.07876051 -0.030129151 -0.04410515 -0.004619781 0.049344305
0.0319502 -0.11286558 -0.08153723 0.07006438 0.123784624 0.12172958 0.040469225 0.04812084
0.10852312 0.0017608436 0.08113436 -0.091799505 -0.12878774 -0.09444745 -0.04548909 0.084645525
00000000: 3c36 7cbd 1fe8 103d 72ac 973d 26b7 a33b
00000010: 6365 b7bd 35d0 f83d cd0e f83d 29fe 423c
00000020: eaf1 01be a503 96bc 3c8a 00bd 5bf2 babc
00000030: 5016 66bb 97c5 90bd 4dd4 c63d 9ee7 8a3d
00000040: dbd3 ffbd dbf3 853d af96 07bd 5455 30bd
00000050: f0cb dbbd d548 8cbd 92e7 0f3d 2c13 463d
00000060: 991e 02be bfa6 3b3d cef8 d7bd 193a 4fbd
00000070: 2241 c9bd 066c c13d 8dd5 f0bb 8394 f03c
00000080: 48eb f2bc 2b12 babc 82d0 a93c d24a 703d
00000090: 3728 5fbd e87b 4ebc df75 a93d 5a32 483d
000000a0: 7387 ebbc b7c5 ba3c 7cb9 ce3c 78c3 35bd
000000b0: f274 9d3d f8e4 343d 1a5f ddbd 0bb1 4c3d
000000c0: 4160 cc3d 7a3d 77bd 5762 c4bd f683 a7bd
000000d0: 3f75 46bc b66e 12bc 5850 ba3d 862d c93d
000000e0: a099 b93d bfb2 e13d 63e6 eebd 19b5 e13d
000000f0: 4e24 43bd 064b 1abd 2fb3 c8bd 2e70 623d
00000100: 1bf8 7d3d 9623 0c3d ef34 c0bd 2d61 5d3c
00000110: 83ec d0bd 1b51 dabc 9ed4 f33a 740a eebc
00000120: 1754 ae3b 1a0a d83d fd13 17bd 4eae 723d
00000130: a2a7 243d 76e1 d93d cbf3 4e3d 78c1 af3b
00000140: 0482 203d d067 ed3a 7fa4 84bd 5bd0 a43d
00000150: 8369 993d 66f5 f23d d8b0 103e f8fa b0bd
00000160: 4879 bcbd 53b8 3d3d 92ce 883d 4112 c1bd
00000170: 3db0 f6bd 2f47 fbbb 10e7 04bc 264a c73d
00000180: c786 adbd 79a8 b93d cd9e 8f3c 2919 5fbd
00000190: 0a0f 2e3c dee8 cf3d 6d00 06be 599e 94bd
000001a0: 2e71 f03d 059c 433d dde1 e33d fa2a c33d
000001b0: 6e08 32be ff87 93bd 625f 31bd 218f b13d
000001c0: 4edc 24bd e82b b3bd cb01 eabd 8a0e f03d
000001d0: 17fc c13a 1eac abbc 218a 8f3d 22f8 ef3d
000001e0: 10b2 343c 7731 72bc b08d df3d 829c 8abc
000001f0: a6b2 6fbd c881 303d 5e2c 833c e08a c5bc
00000200: b94a f93c 5286 803d ad64 673d b3ec 24bd
00000210: 1508 dcbd 4b2e 56bd 3a15 eabd bf5b 143c
00000220: 9024 ed3d 9cc8 713d 0e3b 893d 0d09 dbbd
00000230: 86d5 023d 3ba2 ccbd d208 d6bd 7d5a 05be
00000240: 4c43 013e 171a 943d c3e7 c33b 8e0c 02be
00000250: 6c4c 3abd b925 8d3d 4442 1a3c 6fe6 863d
00000260: 7496 ddbd 778c 023d 6e98 8ebd b3e1 a73d
00000270: 67e7 cfbd d013 f2bb 7a83 ba3c cfb3 913d
00000280: 6961 b73d ebd0 a43d 1626 78bd 8da0 263d
00000290: e0fd 1cbc 4d9f 0d3e caa2 aa3d 6465 9d3c
000002a0: eecc b13b 14b3 733d 2a55 f939 b717 293d
000002b0: 659c f73c f614 00be b94a f4bd 2ad7 81bd
000002c0: a16f 00bc 7e22 f03d 4bf9 bb3d 7b1e bd3d
000002d0: adf4 bcbd 9cf6 0d3e 294f e03c c0a1 31bd
000002e0: 4b7e c4bd 889c a6bd c24d e63d 5277 bd3d
000002f0: 23b2 853d 4c9f abbc c959 00bd 564b 5a3d
00000300: 5ac6 0abe 78c4 5fbd c1ea e5bd 14ae 64bd
00000310: dfdf 903d 141b e2bd 9353 563d 79c6 dc3d
00000320: fc1b 0cbd ac67 d73d 8983 babc 88c5 51bc
00000330: 7065 b6bd e4ad ad3d 69dd 093d 6c3f b23d
00000340: 6615 a5bd 4467 a9bd 8241 f63c 6d34 733d
00000350: 7107 55bd 9ad4 9d3d a564 9dbd 6129 2d3c
00000360: 8da1 9abd 8a86 9dbd 3f32 debd 61d8 7b3d
00000370: 2559 36bd 7a69 ddbc 2143 edbd f2d3 06be
00000380: f42b af3d dd95 70bd a8b2 c0bd f35d 813d
00000390: 3d93 0c3d 7cd6 013e fab9 0e3d d9fb 9cbd
000003a0: e790 ce3d 764d 083e 25dd 9abc 314d a1bd
000003b0: 69d1 f6bc 9aa7 34bd 8861 97bb 411d 4a3d
000003c0: 37de 023d 1226 e7bd fefc a6bd ea7d 8f3d
000003d0: cb82 fd3d 5c4d f93d 0fc3 253d 5c1a 453d
000003e0: 5f41 de3d 1bcc e63a c529 a63d 6101 bcbd
000003f0: efe0 03be aa6d c1bd c552 3abd a25a ad3d

1.2.bias f4 [48]
0.07539357 -0.13175124 -0.060044535 -0.09002812 -0.021951592 -0.0675914 0.05673185 -0.06540902
-0.0113376845 0.058294013 0.10376275 -0.110006794 -0.00489742 0.21114321 0.2063473 0.032729924
0.063033774 0.052607667 -0.079538204 0.034402266 0.10762709 -0.075752735 0.02026611 -0.021336775
0.12151021 0.08109228 0.07358095 0.05531716 0.071672596 -0.003920773 0.16113007 -0.20047522
0.17133385 0.18303722 0.035159465 -0.06273224 -0.04298399 -0.04076115 0.09480653 -0.06158614
0.12752199 0.0016604669 -0.1975141 0.07783679 -0.037531257 -0.19585681 0.08400069 -0.030580126
00000000: f267 9a3d cce9 06be 42f1 75bd aa60 b8bd
00000010: d3d3 b3bc 5c6d 8abd a85f 683d 2af5 85bd
00000020: b2c1 39bc b4c5 6e3d 9181 d43d 3e4b e1bd
00000030: 897a a0bb ed35 583e b54c 533e d00f 063d
00000040: da17 813d 237b 573d ede4 a2bd 64e9 0c3d
00000050: 976b dc3d 4024 9bbd 1d05 a63c 76ca aebc
00000060: 58da f83d b613 a63d 9cb1 963d 3f94 623d
00000070: 15c9 923d d479 80bb 48ff 243e 6049 4dbe
00000080: 2472 2f3e 1c6e 3b3e 5f03 103d c379 80bd
00000090: fb0f 30bd 2af5 26bd ed29 c23d c041 7cbd
000000a0: 2095 023e 06a4 d93a 2341 4abe e568 9f3d
000000b0: 60ba 19bd b08e 48be 8e08 ac3d 2c83 fabc

1.4.weight f4 [48, 48]
0.09742278 -0.1645058 0.007864945 0.027761932 0.010033912 -0.10645446 -0.120080955 0.0855838
-0.037657976 -0.009181739 -0.060381494 0.010768159 -0.02146542 0.061890155 0.16668066 -0.10770995
0.18460506 -0.032623447 -0.112952 -0.055979185 0.076213054 -0.123896934 -0.009536658 0.14191456
0.13368869 0.11198005 0.11300433 -0.041095994 0.0976191 0.021945199 0.034417227 0.13896002
0.11190917 0.008170789 0.092013374 0.078362174 -0.035433277 0.1411154 -0.031708237 0.15263405
-0.02250555 -0.13506635 -0.114667535 -0.11976892 0.06631765 0.07480917 -0.009028061 0.0764938
-0.101763055 -0.162871 -0.10323906 -0.09587426 -0.10631173 0.06080166 0.03717468 0.121646695
0.1015358 -0.028777799 -0.0017157306 0.11769106 -0.14745675 0.070160836 -0.04128418 0.15449423
0.09637668 -0.04397341 -0.013563833 0.038681842 -0.05481764 0.044002827 -0.046823725 -0.028446732
-0.018792994 0.11800391 -0.013378796 -0.15669294 -0.13442196 0.15869601 0.0782111 -0.015478516
-0.08790595 0.04659662 -0.049001403 -0.018261367 0.12254467 -0.08817828 -0.07757808 0.11560662
0.09123028 0.01561365 0.07792663 -0.10761508 0.053434853 -0.0056930273 -0.15558745 0.02976347
-0.07417162 -0.028141662 -0.12862918 0.1240201 0.08575906 -0.021379909 0.04245236 0.03340311
-0.15615457 -0.0885094 0.12819123 -0.053444248 0.07988557 -0.024642736 0.0039385194 -0.029368231
-0.045654263 -0.050930854 0.14676225 -0.13152497 0.05614071 0.027109416 -0.04446537 0.0893198
-0.12169644 0.04209439 -0.105952755 -0.051782176 0.08656868 -0.12502028 0.027817473 0.08381174
0.046401836 -0.09103665 0.023852332 0.05127113 -0.11721851 0.042238224 0.1278887 0.11879538
0.106542334 0.062808245 -0.11267026 -0.016196473 -0.122903556 0.07676438 -0.12044532 -0.07948093
0.09303588 0.031345006 0.12541382 0.07586454 -0.063298754 -0.14535338 -0.0023020126 -0.15727921
0.10616952 0.009072558 0.021895884 0.16152544 0.033777982 -0.100899026 -0.04023474 -0.12588328
-0.15221384 0.006930218 -0.09788381 -0.03393602 0.09525395 0.005935334 0.092269786 0.12108042
0.038366757 -0.06423286 0.14723204 0.16587849 0.065360956 0.1449531 -0.03658699 -0.039773483
-0.028899997 -0.06744219 0.07039135 0.06918058 0.0050789006 0.007923714 0.13761611 -0.098120354
-0.041832466 -0.06686938 -0.10737513 -0.12196386 0.036952384 -0.06376047 0.053873006 0.13228151
0.041868366 0.04274717 -0.1115184 0.11607704 -0.12594953 0.11256755 0.025090743 -0.13798726
0.03246004 0.03564259 -0.14072761 -0.08083281 -0.08143491 -0.14920497 0.10931014 -0.021551795
0.053869862 0.08385032 -0.107739516 0.050493237 -0.14530413 -0.023611141 -0.0383737 0.10206981
0.07307362 0.051929142 0.05569747 0.02000618 -0.08244804 0.010187235 -0.15563726 0.12063366
0.11989354 -0.12648544 0.025950562 0.06238145 -0.02086226 -0.09503201 -0.13941103 -0.053947117
-0.12964882 -0.0062863086 -0.0067869416 -0.03721708 0.08074436 0.033171378 -0.03782675 -0.015982231
0.09191294 0.05891508 0.023569293 0.060239736 0.08975484 0.048583616 0.11730671 0.05081324
0.14803028 0.1498484 0.019464193 -0.006115053 -0.119951285 -0.11908324 -0.038407378 0.0626778
00000000: 9885 c73d 3574 28be f8db 003c fe6c e33c
00000010: 4765 243c cc04 dabd 01ed f5bd 8f46 af3d
00000020: 403f 1abd 016f 16bc 9652 77bd ef6c 303c
00000030: 40d8 afbc 8880 7d3d 56ae 2a3e 0997 dcbd
00000040: 1c09 3d3e 2aa0 05bd 6153 e7bd 6e4a 65bd
00000050: 9715 9c3d adbd fdbd a53f 1cbc 0d52 113e
00000060: b0e5 083e cc55 e53d d06e e73d 4654 28bd
00000070: 86ec c73d 6bc6 b33c 14f9 0c3d 894b 0e3e
00000080: a330 e53d c6de 053c 8271 bc3d 597c a03d
00000090: 7c22 11bd 8e80 103e 7fe0 01bd 1a4c 1c3e
000000a0: 8f5d b8bc d54e 0abe d0d6 eabd 6849 f5bd
000000b0: 8cd1 873d 8d35 993d 6fea 13bc c8a8 9c3d
000000c0: 2669 d0bd a8c7 26be 006f d3bd b959 c4bd
000000d0: f7b9 d9bd 290b 793d 7a44 183d e721 f93d
000000e0: 00f2 cf3d 6bbf ebbc 5ee2 e0ba 0308 f13d
000000f0: e7fe 16be 7cb0 8f3d 9a19 29bd bc33 1e3e
00000100: 2361 c53d 761d 34bd d73a 5ebc da70 1e3d
00000110: 7688 60bd 4f3c 343d 3cca 3fbd 1f09 e9bc
00000120: c4f3 99bc 09ac f13d bd32 5bbc 1d74 20be
00000130: e9a5 09be 3581 223e 242d a03d 9a99 7dbc
00000140: 0908 b4bd 19dc 3e3d b2b5 48bd dd98 95bc
00000150: b3f8 fa3d d096 b4bd 42e1 9ebd 2ac3 ec3d
00000160: f1d6 ba3d 65d0 7f3c ff97 9f3d 4c65 dcbd
00000170: 81de 5a3d 938c babb 5152 1fbe 85d2 f33c
00000180: 4ae7 97bd 5889 e6bc 5eb7 03be 40fe fd3d
00000190: 72a2 af3d eb24 afbc 87e2 2d3d b3d1 083d
000001a0: fce6 1fbe 6b44 b5bd 9044 033e 5be8 5abd
000001b0: 0c9b a33d 90df c9bc b20e 813b a595 f0bc
000001c0: f7ff 3abd df9c 50bd d848 163e 7bae 06be
000001d0: cdf3 653d 9114 de3c 5221 36bd 4ded b63d
000001e0: fc3b f9bd 2b6b 2c3d c2fd d8bd 8c19 54bd
000001f0: ec4a b13d 5105 00be 78e1 e33c 7da5 ab3d
00000200: da0f 3e3d 6c71 babd f765 c33c ad01 523d
00000210: 4210 f0bd fd01 2d3d 41f5 023e fe4a f33d
00000220: de32 da3d 9ca1 803d aabf e6bd 77ae 84bc
00000230: dcb4 fbbd a536 9d3d 09ac f6bd e6c6 a2bd
00000240: 9889 be3d 9f63 003d 7b6c 003e de5e 9b3d
00000250: c7a2 81bd 84d7 14be 5ddd 16bb cd0d 21be
00000260: 686f d93d 11a5 143c ff5e b33c ed66 253e
00000270: c85a 0a3d 26a4 cebd 2fcd 24bd 8ce7 00be
00000280: f2dd 1bbe e216 e33b 4f77 c8bd 7f00 0bbd
00000290: 8114 c33d 317d c23b f1f7 bc3d 03f9 f73d
000002a0: 7626 1d3d 858c 83bd ffc3 163e 0ddc 293e
000002b0: f7db 853d 966e 143e 3ddc 15bd 85e9 22bd
000002c0: b0bf ecbc 221f 8abd 5729 903d 8cae 8d3d
000002d0: e86c a63b 77d2 013c 3deb 0c3e 53f3 c8bd
000002e0: 8558 2bbd d0f2 88bd 7ee7 dbbd 30c8 f9bd
000002f0: 625b 173d d994 82bd f1a9 5c3d ce74 073e
00000300: 2a7e 2b3d a817 2f3d c263 e4bd cdb9 ed3d
00000310: eaf8 00be d189 e63d 1a8b cd3c 884c 0dbe
00000320: d2f4 043d f7fd 113d e61a 10be ac8b a5bd
00000330: 59c7 a6bd 30c9 18be ffdd df3d 648d b0bc
00000340: a5a6 5c3d b7b9 ab3d 89a6 dcbd ffd1 4e3d
00000350: 9bca 14be 276c c1bc be2d 1dbd fa09 d13d
00000360: 9fa7 953d a7b3 543d 0823 643d 00e4 a33c
00000370: 85da a8bd 5ce8 263c 605f 1fbe c80e f73d
00000380: bf8a f53d 6685 01be 4696 d43c b183 7f3d
00000390: 55e7 aabc 24a0 c2bd c4c1 0ebe a7f7 5cbd
000003a0: a9c2 04be 61fd cdbb fe64 debb f070 18bd
000003b0: 4d5d a53d b6de 073d 39f0 1abd 2bed 82bc
000003c0: da3c bc3d f050 713d 6414 c13c f1bd 763d
000003d0: 63d1 b73d 9dff 463d 803e f03d 8b21 503d
000003e0: 4095 173e dc71 193e 5f73 9f3c c860 c8bb
000003f0: 05a9 f5bd eae1 f3bd 0e51 1dbd 385d 803d

1.4.bias f4 [48]
-0.06965286 -0.08987899 -0.12493793 -0.061214384 -0.142274 -0.03715483 0.10963593 0.10605501
-0.0151263755 -0.01594213 0.0974864 -0.04893879 0.09181766 0.04926934 0.10853305 -0.09513783
0.10440788 -0.10781089 -0.00020556 0.018979557 -0.107566565 -0.089726575 0.029187111 0.030820284
0.011978795 0.14631586 0.096983515 0.03927666 0.06387998 0.13545875 0.12015621 -0.056592625
0.055657223 0.10777839 -0.06225469 0.18119697 0.105929345 0.11399619 -0.09689902 -0.09267805
0.012315694 0.124042474 -0.024907786 -0.11799451 0.032979067 0.12663321 -0.03189769 0.10448846
00000000: 29a6 8ebd 7a12 b8bd 75df ffbd efbb 7abd
00000010: 47b0 11be aa2f 18bd cd88 e03d 5e33 d93d
00000020: 9ed4 77bc 1299 82bc f3a6 c73d 0a74 48bd
00000030: e60a bc3d a6ce 493d 9346 de3d 9fd7 c2bd
00000040: ccd3 d53d f5cb dcbd 988b 57b9 047b 9b3c
00000050: dc4b dcbd 91c2 b7bd cf19 ef3c d27a fc3c
00000060: b542 443c d3d3 153e 4b9f c63d 90e0 203d
00000070: 82d3 823d b3b5 0a3e 7614 f63d abcd 67bd
00000080: d4f8 633d ebba dc3d c6fe 7ebd b38b 393e
00000090: 7cf1 d83d d676 e93d fe72 c6bd fdcd bdbd
000000a0: c4c7 493c fb09 fe3d 6a0b ccbc 1ba7 f1bd
000000b0: 0f15 073d 23ac 013e 27a7 02bd 0cfe d53d

1.6.weight f4 [36, 48]
0.06142017 0.046435274 -0.10222886 0.11246122 0.005041722 0.13021351 -0.063822374 0.025903415
0.1385346 -0.13200492 -0.05521225 0.15860134 -0.15104783 0.07912856 -0.029614514 0.0057631866
-0.12794016 -0.1360148 -0.1326553 0.052053962 0.07456252 -0.046236783 -0.07014558 0.045838386
0.08302452 -0.052410603 0.008951624 0.09606808 0.06182923 -0.017115893 0.12429902 -0.013753586
-0.08945046 0.012530486 -0.0019509792 0.08754717 -0.029181825 0.044670247 0.0111102015 -0.15808006
-0.076690204 -0.08592137 -0.15322204 0.15563947 0.115119524 -0.1294312 0.10468634 0.072572425
-0.124681585 -0.07253345 -0.079293355 0.059910636 -0.07695457 -0.110002205 -0.027843745 -0.12129614
0.018840576 0.094832316 -0.1374994 -0.0015518896 -0.06919885 -0.09323336 0.028229993 -0.036473747
-0.2190126 -0.15788445 -0.08312861 0.058850203 0.15786122 -0.1420747 -0.10732602 -0.019159663
0.04915954 -0.04829249 -0.042631835 0.07467209 0.16936728 -0.029389147 -0.100441605 0.12984507
0.011851304 -0.19081376 -0.07494104 0.046902634 -0.06319344 -0.080358535 -0.1497761 -0.054124784
-0.033018094 -0.07594667 -0.032182794 -0.04822188 -0.023137737 0.07600997 -0.093184955 -0.033374686
-0.13438465 -0.073169075 -0.13046338 -0.111966856 0.08354975 0.1303219 -0.038455617 -0.107220426
0.06335322 0.023523837 -0.14852642 -0.09926907 -0.10527758 0.09127339 -0.021322064 -0.012397896
-0.20614411 0.1115573 0.16436002 -0.09510401 -0.11482347 0.08453761 -0.14005673 -0.17735589
-0.10086806 -0.08863536 0.07589585 0.07914567 0.15698726 -0.14533737 0.07765027 -0.116139054
-0.04467422 -0.10533911 -0.11448706 -0.06254167 -0.15421814 -0.026651178 0.0579434 0.019157425
0.0018315694 -0.057141934 0.03313071 -0.02962157 0.064665705 -0.03853553 0.11525229 0.11333317
-0.0019058696 -0.01793209 -0.06707833 0.09536187 -0.029840507 0.13543917 -0.119195215 0.095775716
-0.075502105 -0.09411283 0.082752295 -0.08962056 0.02609128 -0.01434908 0.07406677 -0.107144326
-0.15653145 0.041067336 -0.0141335055 0.04073978 0.118410416 0.116085924 0.017408919 -0.06162361
0.14895685 -0.12854539 -0.008040208 0.0013334202 0.076036334 0.0447755 -0.047725923 -0.12764212
0.12045001 0.06622636 -0.030125031 -0.071770296 -0.06781162 -0.09017079 0.10347997 -0.1191944
-0.08396044 0.13898271 -0.043286677 0.026889376 0.04251402 -0.1410628 0.06825047 0.0949407
0.042167056 0.15772267 0.14617804 0.014580567 0.055208303 -0.15320837 -0.11381567 0.012025549
-0.06506098 -0.15395144 -0.099907055 0.08490428 0.11567042 -0.09043539 -0.10466932 0.055946395
0.14529268 -0.005643566 -0.021697761 -0.052067682 0.084251255 0.10494693 0.006574269 -0.050932664
-0.1310253 0.111557834 0.0068479534 0.12322941 0.08097138 0.11618633 0.108462565 -0.14828724
0.021743648 0.099813305 -0.05396929 0.15409128 -0.11821683 0.05132056 -0.02030976 -0.10466568
-0.06337916 0.09922273 -0.020802038 0.115850344 -0.12763183 0.17019339 -0.1295818 -0.19023599
0.006398301 -0.11111907 0.10617932 0.10127414 -0.023945855 0.04105167 0.12923925 0.040507205
0.07504932 0.0682747 0.115162216 -0.03730526 -0.13589814 0.14587791 0.09701045 0.03915936
00000000: b793 7b3d ea32 3e3d 5d5d d1bd 1152 e63d
00000010: 0835 a53b b156 053e 4eb5 82bd 6633 d43c
00000020: 04dc 0d3e 4c2c 07be 3e26 62bd 6468 223e
00000030: 48ac 1abe 280e a23d 239a f2bc 1dd9 bc3b
00000040: bf02 03be 7747 0bbe cad6 07be 8936 553d
00000050: 3cb4 983d c862 3dbd 7ca8 8fbd 08c1 3b3d
00000060: c208 aa3d 80ac 56bd d5a9 123c 57bf c43d
00000070: a640 7d3d a136 8cbc 7c90 fe3d b956 61bc
00000080: ce31 b7bd ab4c 4d3c 00b8 ffba ee4b b33d
00000090: b90e efbc 26f8 363d 9007 363c bddf 21be
000000a0: c10f 9dbd 8bf7 afbd 3de6 1cbe f45f 1f3e
000000b0: c9c3 eb3d 9d89 04be cb65 d63d daa0 943d
000000c0: 0f59 ffbd 6b8c 94bd 8e64 a2bd db64 753d
000000d0: 5c9a 9dbd d648 e1bd 9118 e4bc 1c6a f8bd
000000e0: 8d57 9a3c 7237 c23d a5cc 0cbe c668 cbba
000000f0: 20b8 8dbd 22f1 bebd 9642 e73c 7f65 15bd
00000100: d744 60be 76ac 21be 553f aabd e90c 713d
00000110: 5fa6 213e 087c 11be bfcd dbbd baf4 9cbc
00000120: 845b 493d 59ce 45bd b89e 2ebd aeed 983d
00000130: 9e6e 2d3e 82c1 f0bc 54b4 cdbd 1bf6 043e
00000140: f92b 423c af64 43be b07a 99bd fa1c 403d
00000150: 906b 81bd 0493 a4bd e85e 19be f3b1 5dbd
00000160: fb3d 07bd ed89 9bbd 1bd2 03bd 4e84 45bd
00000170: 5a8b bdbc 1dab 9b3d c1d7 bebd e5b3 08bd
00000180: 219c 09be abd9 95bd 3198 05be e14e e5bd
00000190: 221c ab3d 1b73 053e a383 1dbd 6296 dbbd
000001a0: 55bf 813d 10b5 c03c 4f17 18be 954d cbbd
000001b0: c69b d7bd 8bed ba3d 9cab aebc 8b20 4bbc
000001c0: 7117 53be 2778 e43d fe4d 283e e4c5 c2bd
000001d0: 9128 ebbd 0e22 ad3d 086b 0fbe c89c 35be
000001e0: ea93 cebd 7586 b5bd 496f 9b3d 2017 a23d
000001f0: 45c1 203e 52d3 14be 1b07 9f3d 50da edbd
00000200: 51fc 36bd 08bc d7bd 3178 eabd d915 80bd
00000210: 5ceb 1dbe 9253 dabc 0f56 6d3d 08f0 9c3c
00000220: 4511 f03a a90d 6abd 11b4 073d efa8 f2bc
00000230: 746f 843d 6fd7 1dbd 6509 ec3d 391b e83d
00000240: 5fce f9ba 52e6 92bc 5d60 89bd 164d c33d
00000250: 1474 f4bc 91b0 0a3e 9f1c f4bd 0f26 c43d
00000260: d9a0 9abd 3abe c0bd 097a a93d fc8a b7bd
00000270: 61bd d53c 6718 6bbc 52b0 973d 7c6e dbbd
00000280: c849 20be 3936 283d 3890 67bc c1de 263d
00000290: 2981 f23d 75be ed3d 269d 8e3c 0a69 7cbd
000002a0: 2588 183e 67a1 03be 14bb 03bc 28c6 ae3a
000002b0: f0b8 9b3d 8466 373d 427c 43bd 9eb4 02be
000002c0: 7fae f63d b0a1 873d c5c8 f6bc 4efc 92bd
000002d0: d2e0 8abd 77ab b8bd 4eed d33d 321c f4bd
000002e0: 73f3 abbd 7c51 0e3e 5f4d 31bd 1c47 dc3c
000002f0: 2e23 2e3d c472 10be e7c6 8b3d 4570 c23d
00000300: 5db7 2c3d 0d82 213e b2af 153e 55e3 6e3c
00000310: 1a22 623d a8e2 1cbe 3118 e9bd cf06 453c
00000320: b13e 85bd 72a5 1dbe 129c ccbd 4ce2 ad3d
00000330: 9de4 ec3d 3136 b9bd de5c d6bd 0c28 653d
00000340: 9bc7 143e aaed b8bb 81bf b1bc ec44 55bd
00000350: ec8b ac3d 6bee d63d f76c d73b c59e 50bd
00000360: 7f2b 06be 6f78 e43d cc64 e03b b35f fc3d
00000370: 53d4 a53d 19f3 ed3d 9f21 de3d 9cd8 17be
00000380: bc1f b23c eb6a cc3d e70e 5dbd 1bca 1d3e
00000390: aa1b f2bd 8235 523d a760 a6bc f65a d6bd
000003a0: efcc 81bd 4935 cb3d 0969 aabc f242 ed3d
000003b0: ebb1 02be 2d47 2e3e 17b1 04be 39cd 42be
000003c0: d7a8 d13b 6592 e3bd 8b74 d93d d168 cf3d
000003d0: 192a c4bc cc25 283d 4b57 043e e2ea 253d
000003e0: 75b3 993d 9bd3 8b3d 2bda eb3d 66cd 18bd
000003f0: e228 0bbe 0561 153e 6aad c63d 9165 203d

1.6.bias f4 [36]
-0.008738628 0.07356702 -0.13517912 -0.04144713 0.036740735 -0.15238318 0.038927585 0.04684536
0.03990953 0.037330158 0.12720035 -0.014572837 -0.07634057 0.08297245 -0.09281601 -0.06046608
-0.07737849 0.097984575 0.07461662 0.0543739 -4.1078656e-05 0.1609826 0.056421246 0.10973864
0.10737344 0.071754664 0.032270778 0.024475804 0.059731696 0.026295772 -0.10566209 -0.041184217
0.06310355 0.16285184 -0.12497612 -0.10116462
00000000: 762c 0fbc 4eaa 963d 656c 0abe 77c4 29bd
00000010: 747d 163d 560a 1cbe 8872 1f3d ece0 3f3d
00000020: 2d78 233d 82e7 183d cf40 023e e9c2 6ebc
00000030: 7258 9cbd 76ed a93d 5216 bebd 48ab 77bd
00000040: 9d78 9ebd 23ac c83d 99d0 983d 2bb7 5e3d
00000050: df4b 2cb8 9fd8 243e f719 673d a7be e03d
00000060: 9be6 db3d 1cf4 923d 5d2e 043d 7b81 c83c
00000070: 39a9 743d 3b6a d73c 5e65 d8bd c8b0 28bd
00000080: 6f3c 813d a2c2 263e 7bf3 ffbd 652f cfbd

1.8.weight f4 [24, 36]
-0.11046858 0.033133797 0.10840844 -0.06593984 0.01295473 -0.16762716 0.059572116 0.07505839
0.14726758 0.024828723 0.057005268 0.01714231 0.07864288 0.14788489 -0.119440995 -0.052594524
0.08224233 -0.010230351 -0.052928053 0.062428415 0.070348576 0.12384225 -0.048773628 -0.026465159
0.09699378 0.09482642 0.1121361 -0.046121273 -0.16505012 0.16033739 -0.0037976853 0.1261374
-0.057559527 0.17277254 0.05396156 -0.057403814 -0.0012139585 -0.07774244 0.09566599 -0.14317948
0.06447255 -0.1125902 -0.16393842 -0.15919648 0.14315742 0.17339592 -0.17227459 0.16767201
-0.13781388 -0.15678433 -0.087320045 -0.0064852615 0.04157877 -0.029412456 0.07978861 0.050837256
-0.13764878 0.12151095 -0.08181913 -0.12992635 0.15454058 -0.14103058 -0.08866705 -0.1185889
-0.116226934 0.01640367 0.07188533 -0.075678006 -0.11409228 -0.011629753 -0.049612924 -0.15172756
0.13056147 -0.12784536 -0.12453044 -0.16385074 -0.08099939 0.05867033 -0.119410254 -0.026518509
0.2035259 0.16160317 0.09920636 0.08447934 0.065644264 0.026818343 0.10425977 -0.10402413
0.00833375 -0.101491764 -0.11688634 -0.06666647 0.043905944 0.16505788 -0.19105661 0.10188065
-0.094475105 -0.038918946 0.16179788 -0.026206344 0.11272452 -0.19339733 0.03862307 0.14653355
-0.1424835 -0.09529833 -0.23322529 -0.20022306 0.113784865 -0.12527256 0.028162729 -0.012832344
0.055523906 0.07224959 -0.113914564 0.043737907 0.09685581 0.017650975 -0.18880372 -0.14145748
0.015645988 -0.066377886 -0.1264754 0.011620149 -0.025151573 -0.13065577 -0.023851683 -0.12696087
-0.026497226 -0.16602114 0.077806436 -0.12750845 -0.12410208 0.049378943 -0.021748083 -0.090984955
0.13627653 -0.06384175 -0.0076051084 0.08671568 -0.1337844 -0.0977562 -0.04144284 -0.13459386
-0.1518761 -0.11947044 -0.00040754362 0.096041866 0.11132007 0.05175961 0.16947126 0.061421875
0.031533513 0.12725295 -0.1470699 -0.13923843 -0.19293089 0.11290684 -0.15085721 0.032679606
0.027068416 0.12069593 0.088752806 0.042752095 -0.02833474 -0.076517984 -0.0413114 0.05771987
0.1521975 -0.12433689 -0.041378368 0.14729676 0.033588275 -0.11421032 0.08213909 -0.07488795
-0.104259506 0.0421361 -0.0349209 -0.05327086 0.12191451 0.035449196 0.04874098 -0.085636765
0.022617752 0.013732336 0.05305529 -0.12487538 0.031089816 -0.06757345 -0.015736327 -0.057076637
-0.019698536 -0.065010466 -0.049339216 0.08857073 -0.06328034 -0.084246196 -0.1401292 0.12402114
0.15522578 0.06879608 -0.02115615 0.03190317 -0.15155359 0.101740845 -0.012493886 0.10121789
-0.0069699315 -0.18465249 -0.09781087 -0.0026177883 0.07595034 0.13985464 -0.005797273 0.113884605
0.09261639 0.15568602 -0.0687078 -0.01403807 -0.17707194 0.08205852 -0.11822189 -0.043701794
-0.0052657765 0.12912086 0.00041987767 0.09986635 0.13313936 -0.0095751975 -0.11070586 -0.08097344
0.07832478 0.17943144 0.11935428 0.1360683 0.124892235 -0.2250896 0.104956254 -0.07610175
-0.114594124 -0.06630363 -0.09930128 0.040627573 0.01706632 -0.031147344 0.0609978 -0.023883263
0.01833835 0.046249516 0.14179465 -0.05211521 0.17063703 -0.08689794 -0.0968441 -0.12924486
00000000: 5a3d e2bd 4eb7 073d 3f05 de3d 780b 87bd
00000010: 1340 543c 74a6 2bbe e401 743d 37b8 993d
00000020: 50cd 163e 9b65 cb3c 5b7e 693d 086e 8c3c
00000030: 850f a13d 236f 173e 7b9d f4bd 5b6d 57bd
00000040: ab6e a83d 349d 27bc 16cb 58bd f0b4 7f3d
00000050: ea12 903d 01a1 fd3d dbc6 47bd 76cd d8bc
00000060: ada4 c63d 5b34 c23d 9da7 e53d a9e9 3cbd
00000070: e602 29be 7c2f 243e 96e2 78bb 2a2a 013e
00000080: 8ac3 6bbd 49eb 303e cc06 5d3d 4320 6bbd
00000090: b01d 9fba 6e37 9fbd 88ec c33d a49d 12be
000000a0: 2f0a 843d b195 e6bd 79df 27be 6704 23be
000000b0: dc97 123e b38e 313e c068 30be 36b2 2b3e
000000c0: 151f 0dbe 128c 20be dad4 b2bd 5182 d4bb
000000d0: 804e 2a3d 64f2 f0bc 3668 a33d ba3a 503d
000000e0: cdf3 0cbe bcda f83d ca90 a7bd 6a0b 05be
000000f0: e33f 1e3e 526a 10be 1297 b5bd bdde f2bd
00000100: 6308 eebd fd60 863c 9e38 933d 12fd 9abd
00000110: 37a9 e9bd b88a 3ebc ec36 4bbd 785e 1bbe
00000120: e8b1 053e e5e9 02be d109 ffbd 7dc8 27be
00000130: 02e3 a5bd 4d50 703d 5d8d f4bd 583d d9bc
00000140: 1869 503e 4d7b 253e b42c cb3d 8103 ad3d
00000150: 8070 863d 24b2 db3c 2586 d53d 9a0a d5bd
00000160: 488a 083c eada cfbd 1b62 efbd 6e88 88bd
00000170: b8d6 333d ef04 293e 58a4 43be cda6 d03d
00000180: 2a7c c1bd 7969 1fbd 58ae 253e b0ae d6bc
00000190: 1ddc e63d f309 46be 3933 1e3d e40c 163e
000001a0: 32e7 11be c52b c3bd 9cd2 6ebe 4607 4dbe
000001b0: 0a08 e93d 7347 00be 86b5 e63c c03e 52bc
000001c0: 096d 633d 98f7 933d 0a4c e9bd 8526 333d
000001d0: 575c c63d c798 903c c355 41be 3bda 10be
000001e0: 042c 803c 21f1 87bd c482 01be 7062 3e3c
000001f0: ac0a cebc a0ca 05be 9b64 c3bc 0802 02be
00000200: b610 d9bc 7201 2abe fb58 9f3d 9391 02be
00000210: 3b29 febd 9341 4a3d 0929 b2bc 5256 babd
00000220: 138c 0b3e 77bf 82bd 4634 f9bb fe97 b13d
00000230: c7fe 08be 6734 c8bd f8bf 29bd f9d2 09be
00000240: 6985 1bbe ebac f4bd 94ab d5b9 99b1 c43d
00000250: c7fb e33d e301 543d e089 2d3e 8195 7b3d
00000260: 4929 013d 994e 023e 7e99 16be 8594 0ebe
00000270: ad8f 45be b43b e73d 507a 1abe 0ddb 053d
00000280: 95be dd3c 6e2f f73d 08c4 b53d d21c 2f3d
00000290: 421e e8bc 76b5 9cbd 2436 29bd ac6b 6c3d
000002a0: a9d9 1b3e 57a4 febd 5d7c 29bd f6d4 163e
000002b0: dc93 093d 1ae7 e9bd 8a38 a83d db5e 99bd
000002c0: 0286 d5bd e796 2c3d 3809 0fbd 8c32 5abd
000002d0: 51ae f93d 2d33 113d 9fa4 473d 5462 afbd
000002e0: dd48 b93c 98fd 603c 8150 593d aabe ffbd
000002f0: 12b0 fe3c f363 8abd 78e9 80bc 31c9 69bd
00000300: d35e a1bc 3524 85bd eb17 4abd 9264 b53d
00000310: 1f99 81bd 4589 acbd 077e 0fbe ccfe fd3d
00000320: 82f3 1e3e f6e4 8c3d aa4f adbc e6ac 023d
00000330: dd30 1bbe 815d d03d 28b3 4cbc 534b cf3d
00000340: 0664 e4bb 8b15 3dbe 1151 c8bd 338f 2bbb
00000350: da8b 9b3d 0e36 0f3e 0df7 bdbb 553c e93d
00000360: a9ad bd3d 286c 1f3e adb6 8cbd efff 65bc
00000370: 5952 35be 4c0e a83d 511e f2bd a700 33bd
00000380: 898c acbb 4238 043e 0723 dc39 bb86 cc3d
00000390: af55 083e 4ae1 1cbc c1b9 e2bd 67d5 a5bd
000003a0: be68 a03d e0bc 373e 0470 f43d 7d55 0b3e
000003b0: 80c7 ff3d e37d 66be 4ef3 d63d 3cdb 9bbd
000003c0: 53b0 eabd 33ca 87bd 785e cbbd 1969 263d
000003d0: abce 8b3c b728 ffbc d4d8 793d d5a6 c3bc
000003e0: 4f3a 963c 2270 3d3d 9e32 113e c276 55bd
000003f0: 79bb 2e3e 8cf7 b1bd 3356 c6bd c458 04be

1.8.bias f4 [24]
0.0106026735 -0.05080696 0.12365886 -0.20685898 -0.07854959 0.022652816 -0.02602249 0.01745304
0.10412031 0.10271096 -0.1186699 0.18523733 -7.1961855e-05 0.09327541 -0.17791817 0.084222555
0.11180658 0.14655066 0.12746386 0.12173411 0.029120915 0.14263277 -0.00570589 0.024310624
00000000: d6b6 2d3c f51a 50bd db40 fd3d d7d2 53be
00000010: 9cde a0bd 6692 b93c 1e2d d5bc aef9 8e3c
00000020: 073d d53d 205a d23d 3409 f3bd dbae 3d3e
00000030: 3aea 96b8 2e07 bf3d 2e30 36be e07c ac3d
00000040: d9fa e43d 6011 163e e385 023e bc4f f93d
00000050: fc8e ee3c 530e 123e 79f8 babb 1327 c73c

1.10.weight f4 [12, 24]
0.040450614 -0.060148943 -0.17099415 -0.14593959 -0.09149637 0.15058059 -0.02633767 -0.15579258
0.20037779 -0.11872121 -0.06804913 -0.12698808 0.14089565 -0.03397461 0.08016203 0.013698591
-0.039072823 0.21261495 -0.16831431 -0.16833799 0.12599626 -0.15387747 -0.06331521 0.08621465
0.029084535 0.16990636 0.17452572 0.19451548 0.18045835 -0.19359896 0.07429434 0.106463574
0.19136769 0.17258629 0.17778309 -0.047151744 -0.13607703 -0.051964216 0.15911755 -0.12871048
0.010415882 -0.156981 -0.18917716 0.21654068 0.0009249101 -0.05457101 0.083060026 -0.13786675
-0.11810807 0.15367627 0.21640383 -0.16446708 -0.17861307 0.029594237 -0.019394398 0.1689
0.124797836 -0.097878456 0.08250003 -0.20544693 0.1939664 0.06605006 0.17547426 0.07569845
0.008891664 -0.153105 0.019230504 -0.042262156 0.06914738 -0.16181944 0.27672735 0.010455296
0.19457519 0.04615732 0.13650468 -0.14025281 -0.09719993 0.10681661 0.06739847 -0.20198888
-0.050278462 0.1533 -0.15340583 0.13732614 -0.042103004 -0.06473543 -0.12081417 -0.06061457
0.079930685 -0.12132864 0.0014122325 0.0034413612 0.1704611 -0.22050187 -0.21844128 0.0612287
-0.028577022 -0.096856155 0.014699774 -0.1170658 -0.007366693 0.104285374 0.0370232 0.092410915
0.18632495 -0.0013844881 0.0027551285 -0.2128321 -0.09534008 0.10663609 0.004329988 -0.06443258
-0.1739472 0.13495827 0.08064295 0.17732085 -0.13654496 0.14727074 0.06885378 0.18751045
0.13690236 -0.11854794 -0.25943077 -0.22839668 0.03615846 -0.018825756 -0.13903491 -0.06543183
0.054713365 -0.14736246 -0.14114319 -0.074439585 -0.011342715 -0.13639174 0.08632237 -0.12684841
0.027848946 0.264972 0.1811835 -0.020474812 0.08854672 -0.01845748 -0.18682332 0.15646407
0.06955942 -0.21827152 -0.17171067 -0.0509086 -0.14112453 0.18246561 0.19779985 -0.19163913
0.1740013 -0.025205458 -0.23759805 -0.0062524714 -0.042136174 0.029064214 0.013454105 -0.1746691
-0.009090403 0.0007237677 -0.15628228 0.21150225 -0.104431406 0.14977318 -0.09080948 -0.015195148
0.020561045 0.15298529 0.14979813 0.09217327 0.1710407 0.035020202 -0.1429311 0.28188103
0.021900157 -0.21994953 -0.10104411 -0.2220281 -0.035564505 0.09907397 0.18411763 0.03039595
-0.048458636 -0.2512933 -0.22641477 0.1031338 -0.26582143 0.11967598 0.18120724 -0.25330257
0.16793993 0.03267946 0.16718614 0.20330225 -0.09007855 0.16632988 -0.16253756 0.1714563
0.20426665 -0.21399078 0.08078238 -0.23478639 0.0023091154 0.078459054 -0.114280745 0.07211082
0.08936802 -0.24950793 0.12910663 0.10494476 0.11951518 -0.13874066 -0.044919144 0.059919793
0.08404178 0.07204546 -0.04640246 -0.09329395 0.21095186 -0.08554272 -0.20773178 -0.005681973
-0.012631949 -0.37363502 0.23050414 -0.26525044 0.22623497 -0.12717006 -0.07719883 -0.16433504
-0.07289528 -0.21704143 -0.19022538 -0.3593484 -0.21126486 -0.12369577 0.3983878 0.17869332
0.026996652 -0.034997337 -0.06057206 -0.0610447 0.15355492 -0.08702744 0.09746957 0.0077431663
0.07435047 -0.038207762 -0.20520222 -0.0030401065 0.2499171 0.11164301 -0.14624216 0.09294958
00000000: 8baf 253d bd5e 76bd 1719 2fbe 3071 15be
00000010: 7362 bbbd cc31 1a3e 19c2 d7bc 1788 1fbe
00000020: d62f 4d3e 1b24 f3bd 585d 8bbd 2a09 02be
00000030: f346 103e f628 0bbd fe2b a43d 0e70 603c
00000040: d30a 20bd bcb7 593e 965a 2cbe cb60 2cbe
00000050: 2a05 013e 0e92 1dbe 68ab 81bd 4e91 b03d
00000060: b142 ee3c effb 2d3e dfb6 323e 112f 473e
00000070: 13ca 383e ce3e 46be a227 983d 9309 da3d
00000080: e4f5 433e 76ba 303e c50c 363e 3022 41bd
00000090: c757 0bbe 6ed8 54bd b6ef 223e aecc 03be
000000a0: 60a7 2a3c a1bf 20be a8b7 41be d7bc 5d3e
000000b0: ab75 723a da85 5fbd 601b aa3d f12c 0dbe
000000c0: a5e2 f1bd 505d 1d3e f798 5d3e 0f6a 28be
000000d0: 58e6 36be 9d6f f23c 00e1 9ebc 1ff4 2c3e
000000e0: 0296 ff3d 8074 c8bd c7f5 a83d ae60 52be
000000f0: 219f 463e 4145 873d 86af 333e ca07 9b3d
00000100: 58ae 113c 8fc7 1cbe 4a89 9d3c 151b 2dbd
00000110: 249d 8d3d ffb3 25be 35af 8d3e b14c 2b3c
00000120: b83e 473e 750f 3d3d e2c7 0b3e 6f9e 0fbe
00000130: c210 c7bd abc2 da3d 3608 8a3d 2cd6 4ebe
00000140: caf0 4dbd adfa 1c3e 6b16 1dbe 399f 0c3e
00000150: 3374 2cbd 0294 84bd 6b6d f7bd fc46 78bd
00000160: b3b2 a33d 267b f8bd a91a b93a 7688 613b
00000170: 5b8d 2e3e 3ecb 61be 12af 5fbe f2ca 7a3d
00000180: 5c1a eabc 855c c6bd 52d7 703c 32c0 efbd
00000190: 4d64 f1bb 9293 d53d a4a5 173d ef41 bd3d
000001a0: f8cb 3e3e b677 b5ba 638f 343b a8f0 59be
000001b0: a941 c3bd 0664 da3d 92e2 8d3b 3af5 83bd
000001c0: 371f 32be 8032 0a3e 2228 a53d 9993 353e
000001d0: 71d2 0bbe 24ce 163e 3603 8d3d bd02 403e
000001e0: 2230 0c3e 43c9 f2bd 1cd4 84be d2e0 69be
000001f0: e51a 143d 7938 9abc 2b5f 0ebe 2001 86bd
00000200: 1f1b 603d 2fe6 16be d787 10be c873 98bd
00000210: cbd6 39bc 47aa 0bbe c8c9 b03d 8de4 01be
00000220: 7923 e43c 69aa 873e 2b88 393e cbba a7bc
00000230: fc57 b53d 2434 97bc 9d4e 3fbe 1e38 203e
00000240: 2b75 8e3d 9282 5fbe ecd4 2fbe 8985 50bd
00000250: f382 10be 44d8 3a3e 0b8c 4a3e 0c3d 44be
00000260: 662d 323e ad7b cebc e74c 73be 88e1 ccbb
00000270: fb96 2cbd 1318 ee3c 9b6e 5c3c 75dc 32be
00000280: eaef 14bc 3abb 3d3a 7608 20be 0c94 583e
00000290: 22e0 d5bd 245e 193e 52fa b9bd 12f5 78bc
000002a0: a36f a83c 2da8 1c3e ae64 193e 57c5 bc3d
000002b0: 4b25 2f3e 5871 0f3d 885c 12be b652 903e
000002c0: f567 b33c 733a 61be 37f0 cebd 565b 63be
000002d0: 16ac 11bd 4be7 ca3d 5589 3c3e ed00 f93c
000002e0: 907c 46bd 84a9 80be 46d9 67be d037 d33d
000002f0: bf19 88be ae18 f53d 648e 393e e0b0 81be
00000300: 72f8 2b3e e6da 053d d832 2b3e 772e 503e
00000310: 1a7b b8bd 6152 2a3e 3f70 26be 3e92 2f3e
00000320: 472b 513e 6620 5bbe 3c71 a53d d86b 70be
00000330: 8754 173b 24af a03d 060c eabd d6ae 933d
00000340: 9506 b73d 027f 7fbe 8734 043e 47ed d63d
00000350: 60c4 f43d 0812 0ebe 23fd 37bd 756e 753d
00000360: 191e ac3d 928c 933d 8210 3ebd e610 bfbd
00000370: c403 583e 0631 afbd a4b7 54be d82f babb
00000380: 3cf6 4ebc 174d bfbe 4709 6c3e e8ce 87be
00000390: 24aa 673e de38 02be 6c1a 9ebd 7247 28be
000003a0: 1f4a 95bd 1c40 5ebe 71ca 42be 83fc b7be
000003b0: d155 58be 3554 fdbd 7cf9 cb3e 62fb 363e
000003c0: 1528 dd3c 5e59 0fbd 691a 78bd 020a 7abd
000003d0: 803d 1d3e 713b b2bd 209e c73d 63ba fd3b
000003e0: 0f45 983d be7f 1cbd 8820 52be 863c 47bb
000003f0: 45ea 7f3e 17a5 e43d 81c0 15be 595c be3d

1.10.bias f4 [12]
0.32113275 -0.17671713 -0.145841 0.051063083 -0.24574247 0.25721136 0.27466863 0.015180336
0.0034533245 -0.19077933 -0.017666537 -0.1954017
00000000: 836b a43e 56f5 34be 5857 15be 8627 513d
00000010: eaa3 7bbe 35b1 833e 5ea1 8c3e f2b6 783c
00000020: 2c51 623b a85b 43be 6ab9 90bc 6217 48be

1.12.weight f4 [4, 12]
-0.07363344 0.19588679 0.14492022 0.09886523 0.23947243 0.08587909 -0.3502738 0.07050837
0.08223125 0.60972255 -0.30484807 -0.31491315 -0.26959544 0.57657176 0.20395738 0.14255878
-0.033929273 -0.45154598 -0.44739342 0.2104647 0.0877433 0.024665544 -0.31593767 0.32282537
-0.08576093 0.38350445 0.40784854 -0.3359838 0.33363143 0.03699563 -0.028559964 0.19422273
0.29386407 0.26662302 -0.19326839 0.23267093 -0.21538278 0.08044581 0.22114675 -0.45029142
-0.14568742 -0.29692152 -0.16834602 0.5119722 -0.029496057 0.25000238 0.17888264 -0.07919858
00000000: 21cd 96bd 8c96 483e f765 143e db79 ca3d
00000010: 4338 753e 60e1 af3d 1657 b3be b166 903d
00000020: dc68 a83d c716 1c3f 0c15 9cbe 4c3c a1be
00000030: 6a08 8abe 359a 133f 34da 503e eefa 113e
00000040: 6cf9 0abd 0931 e7be c010 e5be 0f84 573e
00000050: c2b2 b33d 650f ca3c 95c2 a1be 5e49 a53e
00000060: 6da3 afbd b25a c43e 86d1 d03e 1206 acbe
00000070: bdd1 aa3e bb88 173d 96f6 e9bc 53e2 463e
00000080: 5a75 963e d082 883e 26e8 45be 4a41 6e3e
00000090: 4e8d 5cbe c6c0 a43d 4b74 623e 998c e6be
000000a0: 152f 15be 1906 98be e662 2cbe 9c10 033f
000000b0: b7a1 f1bc 5000 803e 032d 373e dd32 a2bd

1.12.bias f4 [4]
-0.6778917 -0.5218074 -0.67112863 -0.64424586
00000000: 4f8a 2dbf 2b95 05bf 16cf 2bbf 4ced 24bf
