sequencing_models/bsf_DDQN_6machines.pt (torch_old, 27293 bytes, 16 tensors)

0.0.weight f4 [5, 5]
00000000: d7fb 8d3f d9aa 8a3f 98ce 7d3f 4dff 893f
00000010: b132 8b3f 4e18 bd3f bfc8 9a3f fbbf 733f
00000020: db77 873f 9314 893f c116 943f ec8c 9d3f
00000030: af6c 743f 6526 863f 257f 823f 1ef8 843f
00000040: ffc9 7f3f 2f32 5b3f da29 813f cbd6 853f
00000050: 5c1d 9f3f b3ca b33f 61fd 9f3f 247f d13f
00000060: de5d a23f
1.109248 1.0833389 0.9914336 1.0781037 1.0874845 1.4773042 1.2092513 0.95214814
1.0583452 1.0709404 1.1569444 1.2308631 0.9547834 1.0480467 1.0195051 1.0388219
0.99917597 0.8562345 1.0090897 1.0456175 1.2430835 1.4046234 1.24992 1.6366925
1.2684896

0.0.bias f4 [5, 5]
00000000: aead f0bd 3a3b a53d 4a9c 0b3e 7852 363d
00000010: 95b5 04be 281b 66bb 2c76 153e 8edf eb3c
00000020: dfff 9dbd c75f e8bd 68f3 a33d c1ff 673e
00000030: d316 f03d 195f 5ebd 4960 12bc d135 bcbb
00000040: 9f77 06bd 0be0 ca3c 8f5a 0cbd 93a5 b3bd
00000050: a31d abbd 2d80 153e 7d83 05bd ee86 2fbe
00000060: f62c 0e3c
-0.11751877 0.08067937 0.13633838 0.044512242 -0.12959893 -0.0035111401 0.1459586 0.028793123
-0.07714819 -0.11346393 0.080054104 0.22656156 0.117231034 -0.05428991 -0.008934089 -0.00574372
-0.032828923 0.024765035 -0.03426605 -0.08771815 -0.08355262 0.14599676 -0.0325961 -0.17141315
0.008677712

1.0.weight f4 [48, 25]
00000000: 8237 83be 63d7 8f3e c63d 5cbe 3c21 c5bd
00000010: 0b2e 97bd f18f 28be e22a 63be dbe6 883e
00000020: cb9d 35bd b0e4 ae3d f948 cebd d438 833e
00000030: dbc5 173d 9383 eebd 34aa 00be 2ed8 1dbe
00000040: ba3b 6f3e ed32 f4bc 9c57 983b 439c 45be
00000050: 4e66 9b3d c4ee 40bd 6c3a e2bd 7b58 d2bd
00000060: 997c f0bb 0139 d5bd 7667 3d3e 357c 3c3e
00000070: fce0 833e 5895 52bd af20 eebd 2c57 e13d
00000080: e80c 9a3d 86c9 3dbe e62c 85b9 2863 8bbd
00000090: 43ca cbbd 1b38 733e 47c5 383e 94a8 91bc
000000a0: 2cca 06be 2427 6abe 4407 09be 984e 6b3e
000000b0: 9c5d 71be 13d9 5cbc 8d24 e9bd 9958 693e
000000c0: 01d7 9dbd a4da 033d 3ff5 8c3e f2b4 45be
000000d0: 442d 3bbd 4f24 6e39 d1f5 58be fafc 923e
000000e0: acb8 0ebe 77e0 5fbd 1a21 203e 311a 83be
000000f0: 71cd 653e 5bf9 89be 38b2 213e 4e75 a6bb
00000100: acb2 9539 76b1 173e 5b2a 46be b503 5abd
00000110: ba88 51bd e5ab 90bd 3c57 543e 04a4 523e
00000120: 3110 373d 5da5 abbd 2530 543d 5102 cd3d
00000130: 126f 5ebc 5d06 383e 2270 683e 5548 263e
00000140: 44ac 083c 5694 a8bb b940 0a3e 36ec fc3d
00000150: b3ba bb3d cffb 183c b251 1ebe 4137 f53a
00000160: 78c6 afbd a4dc d43c 1be5 19be 55e7 f6bc
00000170: 5e6a ac3d d230 943c 06d4 e4bd 5b44 3dbe
00000180: f9c9 2a3e f119 c33d 699f b1be fe5a 50be
00000190: 60a7 e43c f9ae 91bd c831 653e d032 263d
000001a0: fa4e 4bbe 7523 7fbd 09dc c43c bcf5 a0bd
000001b0: b9f7 293e ef91 0abe 383b febd 652a 16be
000001c0: 7dfe 0d3d b3ab af3b b740 0b3d 19b4 853d
000001d0: 1d8e 3d3d 6026 d93d 9abd 8bbc 1742 e63d
000001e0: a2da 5abe 4498 2d3e ccd9 97bd 611e 253e
000001f0: 7515 0a3e e5d6 d03d 15eb 81bd 8361 103e
00000200: 006e 47bc 43d0 e1bc 0c87 90bd e3d7 a9bd
00000210: fdf5 023d 73a8 1d3e ba40 943a 402d 75be
00000220: 87a6 9b3e 271a 8e3c 96a7 e2bd 2b16 993e
00000230: 3f05 3ebe 89a9 ba3d 6da7 c53d abb6 cf3d
00000240: c96b 27be ff82 39be 0d8c 6b3c f211 29bd
00000250: c054 d83e 1de1 933d b389 85bd c29c b73d
00000260: 65e5 6d3d 8c65 7f3c 9d82 5fbe 0691 e8bd
00000270: e2a4 ca3d 9c42 193e 37e9 17be bb78 a7bb
00000280: c18d 09be dab9 82be 7578 cc3d a905 bebd
00000290: 7e81 eebc fdb3 893d 9286 88bd 6d7a d83b
000002a0: 3aa2 ca3d b955 32be 1de3 9bbd 9da1 573e
000002b0: beb3 a53e d864 a13e 5500 11be 0c00 27bd
000002c0: 28b1 b23d 9576 6abe 3a68 e93d 0577 223e
000002d0: 0072 e43d aeb7 973e 8f83 9d3d 7410 623e
000002e0: d441 23be 717a dfbd 2737 23bd a8d0 8dbd
000002f0: 703d 32bc d757 143e 33f3 b63d 91fa 363e
00000300: 0738 bfbd fca8 04bc ca02 69bd 50e1 23be
00000310: af2f 1f3e 65f1 8dbe b1c5 083e 19a8 9abd
00000320: 5a76 bdbd 82d2 cebd 8e55 a1bd 005a 1f3e
00000330: 11ee af3d 6430 84be 40b6 73be e9cf 0d3e
00000340: e60c f13d 2952 4abe 3c03 86bd ca47 91be
00000350: 8e3b 3cbd 6430 f7bd d8ce 2d3e c1ea 6c3c
00000360: b691 a6bd 07ce 2abe 5b26 3b3e 6058 35be
00000370: 525a 4c3e 44ac a4bd 130e ad3e 8e67 0a3e
00000380: 6133 b2bd a7b6 9cbd 131e 31bd fddc d8bd
00000390: e53a a73d 96c8 373c c56b 9e3e 23df 213e
000003a0: 8539 573e 47ad 64be 172a fd3c 3c23 d8bd
000003b0: 2c27 453e 21cf 963e 5c7f b6be 61f3 d53d
000003c0: 6e89 0f3e a745 413e a1e5 45bd 35c7 2dbe
000003d0: 8fbf 7e3e 3c13 a3be 9707 3f3d fc93 44bd
000003e0: fd60 cdbe fbde b23d 733f 223e 22b3 81bd
000003f0: ca72 b73d 85a5 16bd 167a 9e3d 5244 2d3d
-0.25628287 0.28094015 -0.2150794 -0.096254796 -0.07381829 -0.1646116 -0.22184327 0.2673863
-0.044339936 0.085397124 -0.10072512 0.25629294 0.037053924 -0.116461895 -0.12564927 -0.15414497
0.23362628 -0.02980944 0.0046491157 -0.1929789 0.075878724 -0.047102705 -0.11046299 -0.102707826
-0.007339072 -0.10411263 0.18496498 0.18406756 0.25757587 -0.051411957 -0.11627328 0.11002955
0.07521993 -0.18533906 -0.0002540119 -0.06806022 -0.09950688 0.23751871 0.18044005 -0.01778058
-0.1316306 -0.22866493 -0.13381678 0.229792 -0.23570865 -0.013479489 -0.11383925 0.22787704
-0.07707024 0.032190934 0.27530858 -0.19307306 -0.045697466 0.00022710975 -0.21187522 0.2870863
-0.13937634 -0.054657426 0.15637627 -0.2560592 0.22441651 -0.26948056 0.15790641 -0.005079902
0.00028552616 0.1481379 -0.19352095 -0.05322619 -0.051155783 -0.07064036 0.20736402 0.2057038
0.044693176 -0.0838115 0.051803727 0.100102074 -0.013576286 0.17971177 0.22699025 0.1623853
0.008341853 -0.005144636 0.13501252 0.12349741 0.091664694 0.00933738 -0.15460852 0.0018708484
-0.08582777 0.025984116 -0.15028803 -0.030139605 0.084187254 0.018089686 -0.11173253 -0.18483107
0.16678609 0.09526432 -0.34691933 -0.20347211 0.027911842 -0.071134515 0.22382271 0.040575802
-0.19854346 -0.062289674 0.024030702 -0.0785937 0.16598405 -0.13532232 -0.12413639 -0.1466461
0.034666527 0.0053610443 0.033997264 0.065284915 0.046278108 0.106030226 -0.017058183 0.112430744
-0.21372464 0.16952616 -0.07414588 0.1612487 0.13484748 0.10197238 -0.063436665 0.14099698
-0.012172222 -0.027565127 -0.07057008 -0.0829313 0.031972874 0.1539629 0.0011310794 -0.23943043
0.30400488 0.017346455 -0.11067121 0.29899725 -0.18556689 0.091143675 0.096510746 0.10142263
-0.1634971 -0.18116377 0.014376652 -0.04127688 0.4225216 0.07220671 -0.06520405 0.08965446
0.058080096 0.0155881755 -0.21827169 -0.11355786 0.0989473 0.14966816 -0.14835058 -0.0051108277
-0.13432981 -0.25532418 0.09983913 -0.09278423 -0.029114481 0.06723783 -0.06666292 0.006606391
0.098942235 -0.17415513 -0.07611678 0.21057744 0.32363695 0.3152225 -0.14160283 -0.04077153
0.08725196 -0.22896798 0.11396833 0.15865715 0.11154556 0.29632324 0.076911084 0.22076589
-0.1594308 -0.10912026 -0.03984752 -0.06924564 -0.010878906 0.14486633 0.08933105 0.17869021
-0.09336858 -0.00809693 -0.056887425 -0.16003919 0.15545534 -0.27723232 0.13356663 -0.07551593
-0.092510894 -0.10098745 -0.078776464 0.15561676 0.085903294 -0.2581817 -0.23799992 0.13848843
0.11770038 -0.19757904 -0.06543586 -0.28375083 -0.045955233 -0.12069777 0.16973436 0.014460267
-0.08133261 -0.16680156 0.1827635 -0.17709494 0.1995633 -0.080406696 0.337998 0.13516065
-0.08701206 -0.07652026 -0.04324157 -0.10589025 0.0816553 0.011217257 0.30941597 0.15807776
0.21018036 -0.22331725 0.030903859 -0.105535954 0.19253224 0.29454902 -0.35644042 0.104468115
0.14017269 0.18874227 -0.048314694 -0.16970523 0.24877761 -0.31850612 0.046638098 -0.04799269
-0.4011306 0.087339364 0.15844516 -0.06332995 0.08957441 -0.036778945 0.0773813 0.042301483

1.0.bias f4 [48]
00000000: 00a1 853d 3e59 a1bd 62a9 b23d b79c 453d
00000010: fd7c 433e 5f4c cdbd 690d d8bd 22e7 fabd
00000020: 818f 6cbe 386e 563e 1d8d 15be aad1 57be
00000030: b5bd 29be 6db7 37be 2ebf 6abe 4135 70be
00000040: f7ed eebe 2378 54be 02a0 4dbd aa9d 03bd
00000050: 4dd6 3b3d 3412 a73b 439e 463e 75d9 bebc
00000060: c1ae 7abc 7255 76be dedb 733b f959 2d3d
00000070: 9bff f4bc d445 45be 0386 bb3d 0988 e8bc
00000080: 02f5 de3c 372f 19be ebcd 003e d06a dbba
00000090: cbd6 893d a7a5 813d a3f1 c83d 1abd b83d
000000a0: 4715 c03a cec2 8fbe db2e 763d 754e fbbd
000000b0: 6073 083e eff2 eb3d cd1a 13be 29ba 253e
0.06524849 -0.0787835 0.087237135 0.048245158 0.19090648 -0.10024332 -0.10549433 -0.12251116
-0.23101617 0.20940483 -0.14604612 -0.21076074 -0.16576274 -0.17941065 -0.22924492 -0.23457815
-0.46665928 -0.20748954 -0.050201423 -0.032132782 0.04585867 0.0050986055 0.1939631 -0.023297051
-0.015300454 -0.24056032 0.0037209908 0.042322133 -0.029907038 -0.19264919 0.0915642 -0.02838518
0.027216438 -0.14959417 0.12578551 -0.0016740207 0.06730422 0.06330424 0.098117135 0.09020443
0.0014654779 -0.28078312 0.06010328 -0.12270824 0.13325262 0.11520945 -0.14365692 0.16184296

1.2.weight f4 [36, 48]
00000000: 19d4 f4bd b2e8 5b3e c885 3a3e 372e 273d
00000010: f8dd 99bd a35f 1cbd e649 313e 22b9 a0bd
00000020: 1790 89bc b70d 7cbd e0fe a4bd d35b 333e
00000030: 0e1c 683e fce9 a23d 4845 43bd aa27 5e3d
00000040: 44c7 813e c405 05be 63ae 0bbe 774d 74bd
00000050: 6f74 c3bd 5472 e8bd cbdc 2cbe 7b47 d63d
00000060: cc00 39be f396 d6bd ea12 00be 33bf 89bd
00000070: a93f fabc 51ca b23c 765e 543d a083 a33d
00000080: bf4c 113e ea9e 0f3e b80e f8bd 34bd 4dbe
00000090: 8bf5 c73d d4fc b23d 682d f4bd 680c e93c
000000a0: b292 2d3e 120f 243e 249b 3e3d 36bf 6d3e
000000b0: 1c83 7abb 32f6 03bc 3f98 a0bd e243 5fbd
000000c0: 4f5c fb3d d38a b93c e161 a43d 2b51 abbd
000000d0: 6070 cb3d 4de0 8bbd 86df 983d d437 acbc
000000e0: 404f 9b3c 3a6d 053e fc49 a53d e442 9f3c
000000f0: 3250 b5bd e592 d0bd f5ba 45bd 3ae3 f03c
00000100: bcab 04be 7876 4cbe 1f16 4dbe 0b57 0ebe
00000110: 3a28 91bc 4f6a 2c3d f365 ebbd 82d5 38bc
00000120: 28d8 f23d a8aa 8b3d 09b0 2bbe 58c2 14be
00000130: cf30 b83d 354e 06be 4b1d a8bd 029e 3c3e
00000140: 506a 15be 56fb 8f3c f959 443d fb8d 3cbd
00000150: 42bc 42be 1d7e 5cbd b677 413d baf9 403c
00000160: 0208 d73d b34a 053e 1a21 48bb 2140 8abd
00000170: 8504 6d3d 42e4 a8bd 50a4 3dbe 1f62 c73d
00000180: 81ab d7bd 1f2f b03c a9d7 1ebd 7c6b f0bc
00000190: fb47 15be 68cc a2bd 2842 dbbd 1263 f1bd
000001a0: deda debd 1400 e4bd 91fa b8bd cfdb cbbc
000001b0: edf7 d33d d09f 91bc 0aa3 5b3e 9751 22be
000001c0: 2e16 8fbd e145 363e 28ce 75bd 9614 d7bd
000001d0: 60d8 04be 332a 183e 2735 c83d 74c0 3cbe
000001e0: 80bd 04be 4e7e c33d 399e f23c e158 9d3d
000001f0: 0840 8d3d b4f7 0dbd 388a 253e 2cb0 493d
00000200: e5c9 0d3e 983f 0e3e 7e2e 853d fe91 05be
00000210: 6f8a ef3d 5712 263e 9f29 52bd 2aa8 5b3e
00000220: b6af 02be 481a 0cbd ef99 003e 26dd e2bc
00000230: a3fa 1f3e 2b0f 073e 74f0 2e3e 127b cf3d
00000240: 5835 d2bd 87d0 25bd bc88 273e a423 28bd
00000250: 56ef 063c fa9b 223e 04c9 01be bef7 f1bd
00000260: ae80 113e 3129 d9bd 3971 2dbe 1bf9 f0bd
00000270: ebe7 113e d71c 13be 6943 26be 6cba 373e
00000280: be52 c93d 742a b43c 28cc a03c 8fba bc3d
00000290: f79a 3ebc 44f9 c2bb 68d9 0bbd 567a 1a3e
000002a0: 27ce 94bd 9c3d 6e3d c3d1 a8bd 8c41 15be
000002b0: f66d 8abd a0b7 3dbd 87ce 6dbc 8401 d33c
000002c0: b836 363d b322 933c 7b50 d83d f4cc 093e
000002d0: 4343 79bd 5b18 913c 7a03 8fbd 2680 b33d
000002e0: b99c 00be ba18 5f3d 0f6d 023e 7c39 e3bd
000002f0: cfbe cbbd ebb8 6abd 8887 0d3c 9675 98bd
00000300: 0441 16be 8309 233e 541e b63d d583 11bc
00000310: 65d0 853d c099 933b 7cf8 603d c300 2d3e
00000320: db05 91bc 387a e33d b387 253d 9999 453b
00000330: 1db9 11be d828 c3bd 3354 5b3e 293f d5bd
00000340: 5b98 a13d 9dfa 9b3d 4a35 763e 0327 da3d
00000350: f24e 85bd fcf8 75bc 005b e6bb 12ca 4f3d
00000360: f66a 4b3d f07b 33bd 1d9e fb3d ee55 8c3c
00000370: 1117 853d 9121 383d ffd1 803d 11b4 85bc
00000380: 3b10 453c 33e9 d7bd 253e 093d 19be 323d
00000390: 8d8a c53b b68e e63d 0f68 e23d fbef 283e
000003a0: 800a edbd 985e 16be 8169 38bd 3075 8abc
000003b0: 9f7d 0c3e 3b84 253e b98e 3a3e 7541 01be
000003c0: c8c5 e83d dc4f 00be f570 12be 3b88 02be
000003d0: 9451 003e a7f3 babd f6dc 163e 9a75 1a3d
000003e0: c13b 263d 6d2b dabc c6df 6fbd aab6 743c
000003f0: 1d20 0d3e 541b c63a 405b e73c 5d6a 22bd
-0.11954517 0.21475485 0.18215096 0.04081556 -0.0751304 -0.038177144 0.17313346 -0.07847811
-0.01679234 -0.061536517 -0.08056426 0.17515497 0.22666952 0.07954785 -0.047673494 0.054237045
0.2534734 -0.1299048 -0.13640742 -0.05964419 -0.09543692 -0.11349931 -0.16881101 0.104628526
-0.1806671 -0.1047801 -0.12507215 -0.067259215 -0.030547934 0.021824988 0.051847897 0.0798409
0.14189433 0.14025465 -0.121121824 -0.20091707 0.097636305 0.087396294 -0.11922723 0.028448299
0.16950491 0.16021374 0.046534672 0.23217472 -0.003822512 -0.008054303 -0.07841539 -0.054508097
0.12273466 0.022649204 0.080264814 -0.08365091 0.09933543 -0.06829891 0.07464509 -0.021022715
0.018958688 0.13029948 0.08070752 0.019441076 -0.08853187 -0.10184268 -0.048274 0.029405225
-0.12956136 -0.19967067 -0.2002797 -0.13900392 -0.017719377 0.04209357 -0.11494055 -0.011281373
0.11857635 0.068196595 -0.16766371 -0.14527261 0.089936845 -0.13115771 -0.08208712 0.1841965
-0.14591336 0.017575901 0.047937367 -0.04603384 -0.19017127 -0.05383121 0.047233306 0.011778289
0.10499574 0.13016777 -0.0030537308 -0.06750513 0.05786564 -0.08246662 -0.18519711 0.09735512
-0.10530759 0.021506844 -0.03877989 -0.029348128 -0.1457824 -0.07949144 -0.10705978 -0.11786474
-0.10881589 -0.111328274 -0.09032167 -0.024885086 0.103500225 -0.0177764 0.21448913 -0.15851437
-0.06986652 0.17800094 -0.06001106 -0.10501973 -0.12973166 0.14859848 0.09775763 -0.1843279
-0.12962914 0.09545575 0.029616462 0.07682968 0.068969786 -0.034660056 0.16166008 0.049240276
0.13846548 0.13891447 0.06503008 -0.13043973 0.11696326 0.16217934 -0.051309224 0.21450868
-0.12762341 -0.03420475 0.12558721 -0.027693342 0.15622954 0.1318938 0.17083913 0.10130896
-0.10264081 -0.04048207 0.16360754 -0.041049615 0.008235773 0.15879813 -0.12674338 -0.11814831
0.14209244 -0.1060356 -0.16937722 -0.11766263 0.14248626 -0.1436647 -0.16236652 0.17942208
0.09830235 0.0219929 0.0196286 0.09215271 -0.011633626 -0.005950125 -0.03414288 0.1508573
-0.07265883 0.058164224 -0.08243134 -0.14575785 -0.06759255 -0.046317697 -0.014514572 0.025757559
0.044485778 0.017960882 0.105622254 0.1345709 -0.06085516 0.017711809 -0.06983085 0.08764677
-0.12559785 0.05446694 0.12736915 -0.11094949 -0.09948503 -0.057305258 0.00863827 -0.07444303
-0.14673239 0.15921597 0.088925034 -0.008881529 0.06533889 0.0045044124 0.054924473 0.16894822
-0.017702987 0.11107296 0.040412616 0.0030151366 -0.14230771 -0.09529275 0.21418838 -0.104124375
0.078903876 0.0761616 0.24043766 0.10651972 -0.06509198 -0.015012976 -0.007029891 0.05072982
0.049662553 -0.043819368 0.12286017 0.017130818 0.0649854 0.044953886 0.062900536 -0.016321214
0.012027795 -0.10542526 0.03350653 0.043638323 0.0060284794 0.11257689 0.11055004 0.16497795
-0.11574268 -0.14684522 -0.04502249 -0.016901582 0.13719796 0.16163723 0.18218507 -0.12622626
0.11365849 -0.12530464 -0.14300902 -0.1274728 0.1253112 -0.09128504 0.14732727 0.03770981
0.04058433 -0.026632035 -0.058563016 0.014936129 0.13781781 0.0015114346 0.028241754 -0.039652217

1.2.bias f4 [36]
00000000: bb5e 56be 5afa 2fbb 8763 b0bb f010 493d
00000010: f545 11be 6833 8f3d 7d7c 803e a70b 093e
00000020: 1147 47bd 300e 3c3e c0ef 8b3c 26f6 ff3b
00000030: b3a2 493c f48e 23be b334 6dbd a9f3 af3d
00000040: bfcc c43d 50c2 11be f9e8 16be d15f 043e
00000050: 0a16 ae3b b7ab 1f3e 973e abbc 68d7 8e3d
00000060: 53b3 f33c ea80 173e 377f 0bbd 0e18 f2bc
00000070: a041 353d 80f0 0e3e 07f4 30be 7277 cc3c
00000080: e30f dd3c 6e9b b6be 5a4f cfbd b394 92ba
-0.20934574 -0.0026852102 -0.0053829583 0.04908842 -0.14186843 0.06992227 0.25094977 0.13383351
-0.04865176 0.18364787 0.017082095 0.0078113256 0.012306857 -0.15972501 -0.057911586 0.08591396
0.09609365 -0.1423428 -0.1473731 0.12927176 0.005312686 0.15592848 -0.020903869 0.06974679
0.029748594 0.1479527 -0.03405687 -0.029552486 0.044252038 0.13958931 -0.17280589 0.0249593
0.026985114 -0.35665458 -0.10122557 -0.0011183232

1.4.weight f4 [36, 36]
00000000: ae08 7b3e a8fa 05be 5ba9 123e b9f8 753d
00000010: 6481 96bd 976c d1bd 5c6f 34be 9030 0cbe
00000020: 7951 d63d c2cd 3bbe d5f8 09be 2500 523e
00000030: 2755 013e 015e ff3a 05f0 0f3e f1b3 2ebd
00000040: 1ed9 27be 1f29 543e 499b d93d 67db 41bd
00000050: e3fc 383e 6ea3 0dbe 27b5 e83d 17a4 1cbe
00000060: 1356 1ebe 2842 11be 8466 173d e2e5 1a3e
00000070: 1079 da3d ffe9 ebbc fae6 4c3e 2fd2 f8bb
00000080: c9e5 d93d 4399 a93e 8a1a 0b3e 8eed 30be
00000090: 5155 ffbd 3c79 e9bd 8feb 1abd 26bd bb3c
000000a0: 602c 9abd a1ed bebb 2773 b4bc 9f0b 10be
000000b0: 135b 003e 610d 0abd 9950 3a3e 1bbf 14be
000000c0: c272 acba 7c32 873d 5cf5 cb3d 2902 fcbd
000000d0: f0fd e73d e5a0 c7bd a1f9 4dbd 3c94 033e
000000e0: 9d14 26be b0c8 be3d ef45 19be 0f8b a73d
000000f0: 60db cbbc 8b2e fb3d bad4 793c 6563 1f3e
00000100: 418f 19be c99c 123e 7bad 69bd 4ea1 09be
00000110: 6aa7 94bd 9566 0bbd b825 c53d 1c32 283e
00000120: 0a91 b2bd fa02 e93d c041 aa3d bb99 06bd
00000130: 277e cdbd e046 ecbc 3dd7 aebd ec07 12be
00000140: 6f65 6cbd ba41 abbd 96a1 063e 8253 803c
00000150: aa2b f5bd 39c9 36be e767 dbbd b343 273e
00000160: 480a 08be 72e2 08bb 6e1f 0b3d 62a6 28be
00000170: ebeb aabd f702 113c af8e 253e 5863 47bc
00000180: 9ee5 01be 5b1a 39bc dcdd dc3d 029c 48bd
00000190: 053b ffbc 5e56 cb3d efbd abbd acbb 83bd
000001a0: 2aa7 f53d cf31 0cbe 996f 8fbc fa88 dfbd
000001b0: a503 6e3c 0b59 1bbd 086f 3e3e da18 37be
000001c0: 5bac 243e d485 19be 06eb 873d 51d9 0ebe
000001d0: 3e1f 193e 65c2 b2bd 9196 993c 6e1f db3d
000001e0: 6f2a fcbd c6be 033d c55a b9bd 0faf a5bd
000001f0: 9ac1 f13c ad06 083e ee7f 223e 737c b8bd
00000200: e7e4 88bd ddd3 ca3d 5df6 793c cc6b 203d
00000210: 7958 5e3b 6402 eabd 3a4b b6bd 4a81 5dbd
00000220: 2cef e33d 7116 7cbc 49bd dc3b fb69 dabd
00000230: 44aa 2bbe cff1 8cbd a9be 6a3d e185 22be
00000240: 12a6 d2bd b706 203e 36a3 00bc cb35 f23d
00000250: 1a0b 85bd 08b3 25be d4d8 ea3c 7a32 71bb
00000260: 9ea7 47be 308a b5bd 6959 273e bc1f 6ebc
00000270: c9bb acbc dd19 153d 2633 02be 6f3c 43be
00000280: 206f 57bd d8b9 213d 57df d53d 5e7d d53d
00000290: 467c 353c 1117 90bc 3b43 04be 60db fa3d
000002a0: 833e d13d 36ba 313d 493a 2ebd 5af8 aa3d
000002b0: da18 d13d 5fd0 9e3d 3ab0 29be 8d58 023e
000002c0: 5f35 9a3d 6c7e afbc 887b 64be 29d5 77bd
000002d0: 6517 a3bc 98b5 febd 869f a0bd 737d dd3d
000002e0: 4e6f 32be 0cb9 bd3d 1941 17be 8236 eebd
000002f0: 8989 ec3c 6a04 07bc 6738 ac3c b76c abbd
00000300: ddbe 2f3e 1fdb 17be 37a5 b53b 8a61 ed3d
00000310: faef a0bd 00f5 94bc 70f5 d23d 5444 a13d
00000320: 6ecd e03d 6670 1abd 3221 2b3d 5228 213d
00000330: a0b7 a53d a1e1 14bc dac7 213e b85e 283e
00000340: 49f6 acbd f0af 0bbe 6fe5 063e 98a5 f7bd
00000350: 3c95 adbd b286 ce3c 715b e4bd 7ce5 7c3d
00000360: 1f04 ebbb 8191 e3bd aa8d b33d ad90 853d
00000370: de8b 33bd 7e43 023e f587 413e 6ce9 293e
00000380: 4fd9 213d c359 ddbd c6a7 023e b8d4 2fbe
00000390: 03b3 223e 40d2 2dbd feba 3dbe d229 723d
000003a0: 73f9 9c3c ab03 40bc 9ddc b63d 099c cabd
000003b0: 53b8 e5bc a4a8 8cbd 8f12 353e ba47 133e
000003c0: 6b2b 6bbd 8115 003e 47d3 07be 691c 073e
000003d0: 490c 03bd d18c 283e 15ca 09bc dd08 e4bd
000003e0: 7a68 a53c 8dc1 3dbe a907 b0bc 290e 3ebd
000003f0: 5b5f e63d 51dc 1a3e de3a 0dbe 9397 0e3d
0.2451503 -0.13083899 0.14322416 0.060051654 -0.07348898 -0.1022579 -0.17620605 -0.136904
0.104647584 -0.18340209 -0.13473828 0.20507868 0.1263014 0.0019482971 0.14056404 -0.042652074
-0.16391417 0.20718811 0.106253214 -0.04732838 0.18065219 -0.13831875 0.11362677 -0.1529697
-0.15462522 -0.14185393 0.036963 0.15126756 0.10667622 -0.028798101 0.20009986 -0.007593415
0.10639531 0.33124742 0.13584343 -0.1727812 -0.12467445 -0.11400077 -0.037822302 0.022917341
-0.07527995 -0.0058266674 -0.022027565 -0.14066933 0.12534742 -0.033704165 0.18194808 -0.14526026
-0.0013156759 0.06601426 0.09958908 -0.123050995 0.113277316 -0.09747485 -0.050286893 0.12849516
-0.16218801 0.09315622 -0.14968084 0.0818082 -0.02488488 0.12264737 0.015248472 0.1556526
-0.14996053 0.14317621 -0.05705021 -0.13440439 -0.07258494 -0.034033377 0.09626335 0.16425365
-0.0871907 0.11377521 0.08313322 -0.032861453 -0.10033827 -0.02884239 -0.08537147 -0.14260834
-0.057713922 -0.08362146 0.13147578 0.01566482 -0.11971219 -0.17850198 -0.10713177 0.16334419
-0.13285172 -0.0020886925 0.03396552 -0.1646972 -0.08345779 0.0088508045 0.1616771 -0.0121696815
-0.12685248 -0.011297788 0.10784504 -0.048976906 -0.031156072 0.099285826 -0.08385836 -0.0643228
0.11994775 -0.13690875 -0.017509269 -0.10914798 0.014527236 -0.037926715 0.18597043 -0.17880574
0.16081373 -0.14992458 0.06636624 -0.13950087 0.14953324 -0.08728484 0.018748553 0.10699354
-0.12312781 0.032164358 -0.09050516 -0.080900304 0.029511262 0.13283797 0.15869114 -0.09008112
-0.06684285 0.09903691 0.0152564915 0.039165303 0.0033927246 -0.11426237 -0.08901067 -0.054078378
0.11129603 -0.01538621 0.0067364317 -0.106647454 -0.1676417 -0.06882059 0.057310734 -0.15871383
-0.10285582 0.15627562 -0.0078514125 0.118266664 -0.06496258 -0.16181576 0.028667845 -0.0036803768
-0.19497535 -0.08864248 0.16342701 -0.014533933 -0.021085637 0.03640162 -0.12714824 -0.19066022
-0.05259621 0.039483875 0.10442989 0.104243025 0.011076992 -0.017589124 -0.12916271 0.12248874
0.10217001 0.043390475 -0.042536054 0.083481506 0.10209818 0.077545874 -0.16571131 0.12729092
0.07529711 -0.021422587 -0.22312748 -0.06050602 -0.019908616 -0.1243698 -0.07842927 0.10814943
-0.17425272 0.092638105 -0.14770927 -0.1163149 0.028874176 -0.0082407985 0.021022988 -0.08370345
0.17162652 -0.14829682 0.005543377 0.1159087 -0.07858272 -0.018183231 0.1030072 0.07874361
0.109766826 -0.037704848 0.041779704 0.039345093 0.08091664 -0.009086997 0.15798894 0.16442382
-0.08445413 -0.13641334 0.1317346 -0.120921314 -0.0847573 0.025210712 -0.111502536 0.06174229
-0.007172122 -0.11111737 0.08767255 0.06521735 -0.04383456 0.12721059 0.1889952 0.1659295
0.039513882 -0.10808136 0.12759313 -0.1717099 0.158886 -0.04243684 -0.18528363 0.059121914
0.019161915 -0.0117196245 0.089287974 -0.098930426 -0.028041994 -0.06868103 0.17682861 0.1438283
-0.057414453 0.12508203 -0.1326419 0.13194431 -0.031994138 0.16459967 -0.0084099965 -0.11134503
0.02019142 -0.18530865 -0.021488028 -0.046400223 0.11248656 0.15123107 -0.13791987 0.03481252

1.4.bias f4 [36]
00000000: c2a7 09be 1541 51bd c0c3 38bd ae3d 19be
00000010: e167 49bc 0e22 b0bd 83ca 2d3e 40fe 853d
00000020: b103 363d 9d51 bb3c 37f7 183d 57e5 bf3d
00000030: fe4f b2bd 7226 c13d 4b29 9c3d fc73 3e3d
00000040: cb36 54be 5c31 123e e3dd 21be dec1 d4bd
00000050: 0db8 51bd 3c58 973d 76c8 1b3d 84db 883e
00000060: 919c a9be a386 9ebb 88c7 333c faa7 1e3e
00000070: 53c8 0fbe e2ef 053e 58dc 30be e7f4 023d
00000080: 80dd 733d 3ed2 67bd dff7 2a3c ab3c 08bd
-0.13442901 -0.051087458 -0.045108557 -0.14964935 -0.012292833 -0.086002454 0.16971783 0.06542635
0.044437114 0.022866065 0.037345137 0.09369915 -0.087066635 0.09431161 0.076250635 0.04649733
-0.20724027 0.14276642 -0.158073 -0.1038854 -0.051200915 0.07389876 0.03803297 0.26729977
-0.33127263 -0.0048378273 0.010972865 0.15493765 -0.14041261 0.1307979 -0.17271554 0.03197184
0.05953741 -0.056596987 0.010435074 -0.033260982

1.6.weight f4 [24, 36]
00000000: 3542 92bd 62eb 263e cd99 b43c 5011 3c3e
00000010: e3d0 49be fb4c 80bd 16ab b4bd a129 183c
00000020: 0151 d2bd 5bfc 133e 35fd edbd 5228 35be
00000030: c73e 463c feee 1bbe ff7a fe3d 45e9 d6bd
00000040: 0b69 09be fe5b 47be 904f a93d eaeb db3d
00000050: 5f18 5cbd d321 d0bd 3f58 9e3d b88a 10be
00000060: e4ce 163e 9c57 b73d e8e1 b33c 3f33 903d
00000070: 4ede bc3d 9ee6 983d 655f dc3c 83b8 053e
00000080: 2ad0 1fbe d97e 283e 05c9 84bc c218 17bd
00000090: 6077 fabd 5efc 233e fce6 99bd edb0 193e
000000a0: 39cb dabd 1ce6 25bc 7e25 c03d 7011 3d3d
000000b0: 5d03 153e 8ce1 fb3a acbc 873d e119 84bd
000000c0: db8b eebd 0dbc 84bd 7acf a5bd 8c45 bc3d
000000d0: 11cf 15be 1492 10be 3111 24be 3ac7 ea3d
000000e0: 1529 35be 27fb 92bb 5e7a 023e 9330 9bbd
000000f0: d847 2ebe 425a 12be 3097 06be a23c 54bd
00000100: adbc 53bd 9b95 c43d 22de 02be e567 943b
00000110: 9b7a 17bd 42c0 23be 5ef3 a9bd e269 29be
00000120: c15d e8bd e70c ffbc bbc4 99bd a095 22be
00000130: 3229 323c f883 edbc 696f 0c3e 8d43 d7bd
00000140: b48d 15be 2705 0ebe e432 66bd 3eba 273e
00000150: 88e3 573c c30c 383e e0b6 103e f01f aabd
00000160: 519c 16bd d18d 1a3e a71c 9f3b 1e1c 66bd
00000170: 3019 933d 58b5 d3bd 88f2 11bd 23f6 a83b
00000180: 090e a3bd 94d2 c8bd 8fbf 0ebe 4016 eebd
00000190: 0a1d 44be 34c6 2dbe ec68 b9bd 04ed 85bc
000001a0: d9ed 3d3d 7c28 ed3d a83d bb3c 30ae a83d
000001b0: 3bb1 163e caed bb3c 7809 debd f71d 4cbd
000001c0: 4433 04be 38e1 403e 10bd fbbc fd08 6bbd
000001d0: fb4f 7e3d 8dd7 373e f6d4 bcbd 041b ecbd
000001e0: 3cf6 30bd d9ba 303d f7d0 d83d 1611 7e3d
000001f0: 910d efbd d025 3c3d 46d4 1c3d ff8a 1b3e
00000200: ef5d 91bd 7220 0f3e b8e2 bbbd 025a 86bd
00000210: f7a2 893e 4529 0abe 0657 013e a7c9 12be
00000220: 1186 91bd cf49 a43d 6046 16bd 44e5 023e
00000230: 76b7 7cbc ab8f 41be 7eb2 bcbd 7d11 4abc
00000240: daf0 a33d 57bb fd3d 68d7 143e 7dbf c83c
00000250: 8db8 2cbe f135 ddbc 25ed 13be 8261 c7bd
00000260: 6743 fcbd be9b 2a3e 8590 e23c 9622 1d3e
00000270: b60d d53d e991 16be 7c62 d93d bdab 583d
00000280: 1188 89bd 28d1 b8ba 968e 12bd c045 8c3d
00000290: 4465 153e 5a96 06be 3f1d 303d 0741 5c3d
000002a0: df6d e3bd a94a 943d 71b4 39be 20e8 103e
000002b0: 92db d23d 8941 b6bb 1d98 b43d 94b3 ce3d
000002c0: 220b c93d 2dfe a1bd bce6 5fbd 7926 023e
000002d0: 7c60 9cbd b76c d3bd b381 80bd 73e5 123d
000002e0: 5a8a a9bd 864c 573c 34c0 613d 3b0e 003c
000002f0: 74e7 263e 4dc7 e6bb 260c cb3c ac9b 76bd
00000300: aab3 f83c 0efe a4bc b3aa cfbc e508 53bd
00000310: 7a45 dd3d 1437 2e3e 500d 06be 9adb b8bb
00000320: 8105 47bd 0db3 46bd 9617 123e 7476 a83d
00000330: b563 8ebd 5bd9 103e ac68 85bd 9ff3 debd
00000340: 7ef8 e9bd 80b8 9cbd 13b4 aa3d 2b03 9e3d
00000350: e3ec f0bd bcc1 f73d 5624 46be 5a6f cd3d
00000360: 8665 9fbd 1826 093e 66cb 63bb 7c51 0a3c
00000370: 4f20 033e 277e 9cbd 27bc 24bb 059d 90bb
00000380: 2e2b 893c 5f98 00be ad02 e9bd 9e90 273e
00000390: 1884 1cbe 7d7a f9bd e204 03bd 05ae ac3d
000003a0: ca28 db3d 886c f53d f38c 0dbe 7202 0ebd
000003b0: 8e2e 12bd de30 73bd 7fdd 873d c927 033e
000003c0: ced4 993c ac87 c73d 5879 0ebe dd7a 33bc
000003d0: 33a6 a23c 6971 f53d 2a6d e5bc 7ccc cf3d
000003e0: 749c 10bd e4f4 fb3c 5338 b33d 3945 10bc
000003f0: a161 9e3e 73f7 86bd ca49 f33d 97a3 173e
-0.07141534 0.16300729 0.022045994 0.18365979 -0.1970859 -0.06264683 -0.088216946 0.009287269
-0.102693565 0.14451735 -0.11620561 -0.17691162 0.012099928 -0.15227887 0.124258034 -0.104937114
-0.13418977 -0.19468686 0.082671285 0.107383564 -0.05373418 -0.101627015 0.07731675 -0.14115417
0.1472736 0.08952257 0.021958306 0.070410244 0.09222089 0.07465862 0.026900956 0.13058667
-0.15606752 0.16454639 -0.016209135 -0.036888845 -0.122298 0.16014239 -0.0751476 0.15008898
-0.10683293 -0.010125663 0.09382151 0.046159208 0.14552064 0.0019216998 0.06627783 -0.064502485
-0.11647769 -0.0648118 -0.08096214 0.091929525 -0.14629771 -0.14118224 -0.16022183 0.11463781
-0.17691453 -0.004485506 0.12741992 -0.07577624 -0.17019594 -0.14292243 -0.13143611 -0.051815636
-0.051693607 0.095988475 -0.1278005 0.0045289868 -0.03698216 -0.1599131 -0.08298372 -0.16544297
-0.11346007 -0.031134082 -0.075082265 -0.1587739 0.01087408 -0.028993592 0.13714375 -0.10510931
-0.14604837 -0.13869153 -0.056200877 0.1637964 0.013176806 0.17973618 0.14132261 -0.08306873
-0.03677017 0.15093161 0.0048557105 -0.05617916 0.071825385 -0.10337323 -0.035631686 0.005156295
-0.07961661 -0.098057896 -0.13940261 -0.116253376 -0.19151703 -0.1697014 -0.090532154 -0.01634837
0.046369407 0.115799874 0.022856548 0.08236349 0.14716046 0.022940535 -0.1084165 -0.049833264
-0.12910181 0.18835914 -0.0307298 -0.05738162 0.062087994 0.1795332 -0.092203066 -0.1152859
-0.043203577 0.04314694 0.10586732 0.062028013 -0.116725095 0.0459345 0.038288377 0.15189742
-0.070979945 0.1397722 -0.091741025 -0.065601364 0.26882145 -0.13492306 0.12630853 -0.14334737
-0.07105649 0.0802189 -0.03668821 0.1278277 -0.0154246 -0.18902461 -0.09213732 -0.012333271
0.08004923 0.12389248 0.14535296 0.024505371 -0.16867276 -0.02700326 -0.14445932 -0.09735395
-0.123175435 0.16660973 0.027656803 0.15345225 0.10403006 -0.14704098 0.106144875 0.052898157
-0.06715406 -0.0014100419 -0.03578051 0.06849241 0.14589411 -0.13143292 0.04299664 0.053772952
-0.111049406 0.07240803 -0.18135239 0.14151049 0.10295786 -0.0055620116 0.08818076 0.100928456
0.098165765 -0.07909808 -0.054663405 0.12709989 -0.076355904 -0.1032347 -0.06274738 0.03586335
-0.082783416 0.013140803 0.05511494 0.007815893 0.1629923 -0.0070428015 0.024786066 -0.060207054
0.030359108 -0.020140674 -0.02534995 -0.051522154 0.10804267 0.17013198 -0.13091016 -0.005641413
-0.048589233 -0.0485106 0.1426681 0.08225718 -0.06952611 0.14145415 -0.06514105 -0.10886311
-0.11424349 -0.07652378 0.08335128 0.07715448 -0.117639326 0.12097499 -0.19349799 0.10031004
-0.07783036 0.13393438 -0.0034758686 0.008442279 0.12805294 -0.07641249 -0.0025136562 -0.0044132494
0.016744222 -0.12558125 -0.113774635 0.16363761 -0.15284765 -0.12181566 -0.03198708 0.08431629
0.10701139 0.11983591 -0.13823299 -0.0346703 -0.03568893 -0.059372775 0.06634044 0.12808146
0.018778231 0.09742674 -0.13913476 -0.010954586 0.01985464 0.11984522 -0.028006155 0.10146424
-0.035305455 0.030756421 0.08750977 -0.0088055665 0.3093386 -0.06590166 0.118793085 0.14808498

1.6.bias f4 [24]
00000000: c4c9 8fbc a114 41bc b71f 33bd 8cf5 9a3d
00000010: a3d8 a33d 2b52 2e3d b39e 3e3e 0ecb 11bd
00000020: 0f41 093d 4e2b 7abc 722d acbd d761 e73d
00000030: 859e 473d e079 57bc 0813 ec3b 5b78 0cbe
00000040: 7be1 223e 6893 b5bd daf1 dabd 1841 8dbd
00000050: 0cee 3bbe 3ee6 ed3d 4d16 a43d bddb 7cbd
-0.017552264 -0.0117847035 -0.043731418 0.075663656 0.080003045 0.04255883 0.18615226 -0.03559404
0.03350931 -0.015269114 -0.084071055 0.11297958 0.04873516 -0.013151616 0.007204417 -0.13717787
0.15906326 -0.08866006 -0.10690661 -0.06897181 -0.18352526 0.11616181 0.08012066 -0.061732996

1.8.weight f4 [24, 24]
00000000: 59d1 e4bd 58a2 6dbc ea11 403e 9ccd 093d
00000010: 48c7 283e bf0f b03b 5326 983d 3139 2f3e
00000020: e3ba 0ebe 7f96 993c 37bb 5c3e a96d 963e
00000030: a8ac a5bd c681 b3bb ae3b 943c 1ab0 3d3e
00000040: 3388 933e ed08 58bd be18 873c ac68 8e3c
00000050: 0e36 9d3e 1177 ffbd 3f88 d2bd 1fd2 293c
00000060: 29a9 44be 9eb5 8fbd dc7e f03d 8fe4 4c3b
00000070: a59e 383d aecb c93d 7e4f 323e f795 c23d
00000080: f22a e2bd 0fb3 1e3e 3462 313e 6c2f 3a3e
00000090: 5254 07bd c048 4c3d ca0d 4ebc 28bc 2ebe
000000a0: e1b6 663e 2a42 f63d 61f9 4b3e aca6 22be
000000b0: 524e f4bd 7c88 2bbe c7a9 883c f64d 6cbe
000000c0: 2575 043e c8a9 b9bd 7678 d53b cf16 f2bd
000000d0: 1184 0e3d 50d4 51be 444b 53be e546 2fbe
000000e0: 403b 013e 2acd b73b f3b4 f23b 9851 f4bd
000000f0: 727d 023d 236a fdbd 3e59 b63d 797a 0ebe
00000100: 9377 1c3e 2490 0e3d b1f5 643c 32f9 f73d
00000110: 76fb 88bd 1d04 cbbd b7b1 283e 07e0 8dbd
00000120: df27 68bd 43b7 23be d588 bb3d b874 1c3e
00000130: cfd5 75bd 9e4e 1c3e c0e2 09be 5120 823c
00000140: 1ffd 2f3e d6db cf3d 9c48 d2bc 03d1 30be
00000150: cff6 1cbd 20ff 233e 8e53 9cbd 87f0 ab3c
00000160: dd74 a83d 01df 483e 0d93 31be 98eb 62bd
00000170: ccf1 81be 40e5 26bd 7ac6 873c 6123 6abd
00000180: 193f 6cbd a133 5dbe 8258 7a3d 129c 0bbd
00000190: c4a5 6bbd 77a7 593e 50a0 2b3d 14da 0ebd
000001a0: d67f bd3d 4469 63be ee20 383e 6313 84bd
000001b0: 1787 2c3e 89b9 6c3e 5ce1 293e e896 14be
000001c0: eda8 ac3c 0a98 ea3d 72a1 df3c cd6a 24be
000001d0: 90f4 2bbe 0d77 3f3e 3db5 b53b b358 373e
000001e0: 482a 6f3d 5a5c 163e 8955 01be 19b4 16bd
000001f0: f090 df3d 7fb3 16be aa30 33be 6993 c33d
00000200: 08e0 10bd 62b1 50be 0ae3 4f3e 5a50 0bbe
00000210: 2541 e0bd 3458 083e 6345 98bd ad57 553d
00000220: 0fe7 43be e961 3e3e 9512 293e fe43 44bd
00000230: 1904 a4bc 2b7d ef3d 6b42 25be eaaa 81bd
00000240: 5901 1f3e bbd4 c8bc 6382 ddbc 1c1a 223e
00000250: 1e80 323e 61de 2f3d 966b 203d 2ed5 2a3e
00000260: 0429 253c 1795 133e b437 6abd 9b8b 5d3b
00000270: d485 6a3e 23bb 45be c26a 2fbe 50f9 f2bd
00000280: 035a debc 9a3d 84bd 5b9b 57be ad2d 83bc
00000290: c992 903e 4ed6 85be fecd 143e cef1 0d3d
000002a0: 04b2 463d ee96 a53c aeaa 113e d95b 493e
000002b0: 5623 61be 949e d3bd 1cf6 99bd 72eb ef3d
000002c0: 73af c5bc 0825 3e3e d7ac 57be 11ae 213e
000002d0: 3a12 47be 0acb 85be 0339 16bc f387 883d
000002e0: 19fa 21be 1d68 b93d 494e 69bd ffda 623e
000002f0: 7220 2e3e c428 45bc 30b0 603e 12b4 9dbd
00000300: d70d 573e bb6d 38be ca26 29be 79e3 2abe
00000310: 6fc1 483e b71c 373e 32dd 3a3e d2c0 ba3d
00000320: aba2 88bd 73dd 3d3e db2e 53be b402 02be
00000330: 18f7 503c ac00 093e 0ac5 e8bd 2c2a 34be
00000340: c047 27be 621d 2b3e 11a7 2ebe e6ce 97bd
00000350: 8599 a23d d732 9bbd bbb9 143e 5ef8 2b3e
00000360: 643f fc3d 1b19 9abd f541 0cbd 24cc 26be
00000370: fd41 493d d277 43be 968d 51bd 762f 02be
00000380: 2178 7b3e a80f 1b3e 40b6 13be 6c21 cdbe
00000390: 6f73 0c3e 13dc ccbd dcfb 2abd f7ed aabc
000003a0: 9d40 5cbd 6842 973e a968 0c3d af2b e83d
000003b0: 40f5 30bd df32 8a3d 6c45 8abe 66b3 fbbd
000003c0: 8978 f2bd 37be 453e fe94 e93d de35 073e
000003d0: 2262 433e 4a41 96bd a67b b6bd 1490 77be
000003e0: e952 24be 7462 1dbe d885 413e 6ea6 4dbe
000003f0: ea80 e9bd b830 5f3d 6761 243e a7a5 453d
-0.111727424 -0.014504038 0.18756834 0.03364335 0.1648227 0.005372971 0.07429185 0.1711166
-0.13938479 0.01874852 0.21555792 0.2938054 -0.08089572 -0.0054781167 0.018094864 0.18524209
0.2881485 -0.052742887 0.01649129 0.017383896 0.30705303 -0.12473882 -0.10279893 0.010365038
-0.19205154 -0.070170626 0.117429465 0.0031264161 0.04507317 0.09853302 0.17413136 0.0950126
-0.110433474 0.15497993 0.17322618 0.18182153 -0.0330394 0.049874067 -0.01257653 -0.17063963
0.225307 0.120243385 0.19919349 -0.15883893 -0.11929001 -0.16751283 0.016682519 -0.23076615
0.12935312 -0.09065586 0.006514604 -0.11820757 0.034793917 -0.20491147 -0.2063418 -0.17116888
0.12620258 0.0056091743 0.0074068247 -0.11929625 0.031857915 -0.123737596 0.0890374 -0.13913907
0.15279989 0.034805432 0.013974593 0.12108077 -0.06688587 -0.09912894 0.16474043 -0.069274954
-0.05667865 -0.15987878 0.09156958 0.152789 -0.060018357 0.15264365 -0.13465405 0.01588455
0.17186402 0.10149352 -0.025669388 -0.17267232 -0.038321313 0.16015291 -0.07633124 0.020988716
0.08225415 0.19616319 -0.17341252 -0.05540046 -0.2537979 -0.040745974 0.016574133 -0.057162646
-0.057677362 -0.21601726 0.061119564 -0.034084387 -0.057531133 0.21255289 0.041900933 -0.034875944
0.092528984 -0.22208124 0.17981312 -0.0644901 0.16848408 0.23117651 0.16589874 -0.14510691
0.021076644 0.114547804 0.027298663 -0.16056366 -0.16792512 0.18697758 0.005545287 0.1790493
0.058389932 0.14683667 -0.12630285 -0.03679285 0.109163165 -0.1471691 -0.17499033 0.09549601
-0.035369903 -0.20380166 0.20301452 -0.1360487 -0.10949925 0.13314897 -0.074351095 0.052085567
-0.1913111 0.18592037 0.16510995 -0.047916405 -0.020021485 0.11693796 -0.16138618 -0.063314274
0.15527858 -0.0245155 -0.027039712 0.15830272 0.17431685 0.042936686 0.039165102 0.16682884
0.01008058 0.14412342 -0.05718203 0.0033805135 0.22902614 -0.19309668 -0.17130569 -0.11863959
-0.02714253 -0.06457062 -0.21055357 -0.01601299 0.28236988 -0.26140064 0.14531705 0.03465443
0.048509613 0.02021357 0.14225265 0.19663943 -0.21986136 -0.10332981 -0.07517645 0.117148295
-0.024131512 0.18568814 -0.21062027 0.15789057 -0.19440547 -0.2613147 -0.009168866 0.06666555
-0.15818061 0.09053061 -0.056959424 0.22153853 0.17004564 -0.012033645 0.2194221 -0.07700361
0.21001373 -0.18010609 -0.16518703 -0.16688336 0.19605039 0.17882048 0.18248442 0.09118809
-0.066716515 0.18541507 -0.20623343 -0.12696344 0.012754224 0.13379163 -0.11365707 -0.17594212
-0.16335964 0.16710427 -0.17055918 -0.074125096 0.07939438 -0.07578056 0.14523976 0.16793963
0.12316778 -0.0752432 -0.03424259 -0.16288811 0.049135197 -0.19088677 -0.051160417 -0.12713417
0.24557544 0.15142691 -0.14424992 -0.4006456 0.1371591 -0.10002913 -0.041744098 -0.020865424
-0.053772558 0.2954285 0.0342795 0.11336457 -0.04320264 0.06747984 -0.2700609 -0.12290077
-0.118393965 0.19310842 0.11405371 0.13204142 0.19080403 -0.07336672 -0.08910303 -0.24176055
-0.16047253 -0.15369588 0.18898714 -0.20083019 -0.114015415 0.05448982 0.16052781 0.04825368

1.8.bias f4 [24]
00000000: c9c7 cfbc b1d2 0c3e f012 903d 7173 81bd
00000010: c661 a7bd 1c35 33be 371c 2d3d 9279 0e3e
00000020: 81cf f93c 67d8 5fbe f9b0 563c f848 913d
00000030: 2dcc a13c 95b5 2fbe f5ac ca3d 05a7 633e
00000040: 5841 c73d 57d7 063e d427 65be 3555 913d
00000050: 0346 7fbc f9d0 713d 7d8f 01bc 8b17 dcbd
-0.02536382 0.13752247 0.07034862 -0.06320847 -0.08172946 -0.17500728 0.042263236 0.13913563
0.030494453 -0.21859895 0.013103717 0.07093996 0.019750679 -0.17159112 0.0989627 0.22231682
0.0972926 0.13168083 -0.22378474 0.0709633 -0.015580657 0.059037182 -0.007907745 -0.10746678

1.10.weight f4 [12, 24]
00000000: 07c7 77be 9d9f 65be b0c1 8f3d ad97 453e
00000010: 25be 0a3a 9f5e 5d3e 47f5 8f3d 1113 a8be
00000020: a726 483e feb3 7d3e 5fb2 b2bd 8fcc 7c3e
00000030: d182 01be 9511 f13b ca21 2e3e 350d b2be
00000040: 034e 62be 30d3 3e3e 7939 853d 210e 12be
00000050: 55e8 f03c d6d0 1abe 0d15 263e 506b 4b3e
00000060: fbe7 d53c 05e0 07be f922 f8bd c2e9 053d
00000070: 040f 9d3e 03ce 123e 14c6 1ebe 2f3c 88be
00000080: 72d3 a93d 9d85 233e 3dc3 ed3d 42af fb3b
00000090: e437 11be 516b 09be 79bf 393e aef5 b1be
000000a0: 135e 97bd 015d 0abd 0f52 713e a8b5 bebd
000000b0: 4156 2a3d c980 883c c2a3 853e 42ad 113e
000000c0: 84ca dbbd bc2b 033e 31bc 95bd f332 ee3d
000000d0: 402c 37be 6400 4abd ede8 333e c255 703e
000000e0: e74a 003e dbca 003e cc9d 0f3e 114d b73d
000000f0: 8293 83bd fdb1 0bbe d788 4f3e f1dc 8a3e
00000100: 575f 2e3e 810d 003d 98a6 50be 44b7 08be
00000110: 1b45 833d d8ea 4f3d 222f b2bd bece 2ebe
00000120: 8ec6 22ba 65a1 27be 7e67 12bc a8e8 3e3e
00000130: 4bfa ac3d 05cd 04bd 67f4 9f3e ef3c 48bd
00000140: a585 993d 3314 24be 584c 73be f93b 64be
00000150: 5347 2c3e fa3f 19be 6fe8 5dbe a32b afbc
00000160: 676a 593e c4df a43d b01e 61be 07c7 06be
00000170: a662 b4be 2717 9c3e 85a5 7abd e24a 34bc
00000180: c1de 87be 1a92 01bd 351b debc ed4a 853d
00000190: 4d5d 03be 06b1 c4bd 5203 e0bd 0203 5a3e
000001a0: 07c5 363e ae9e 313e cd62 4bbe 9e11 433e
000001b0: d19a 40bb 5335 28bc 292c 53be 1970 3f3e
000001c0: b625 64bd df69 d03b a2ce 82be 9bc3 0dbd
000001d0: 8fef 5f3d 2550 523e f805 123e d45d ea3d
000001e0: f8cd 603e 0ebe 183e 9328 4f3e 199c 02be
000001f0: b212 53be 7dfc 47be 0972 623e a0ef bd3d
00000200: a5a3 eebc 1f57 49be fc4a dcbd 05de d2bc
00000210: a070 27be 5549 f23c 1d3f a93d cd2b 09be
00000220: 428b bebd ac6b 68bd 485c c3bd 03f8 1e3e
00000230: 7832 70be 85bb 883e 201f 9a3b f8e7 1fbe
00000240: 8285 6b3e 42c2 87bd 1493 8d3d 44b0 d43c
00000250: 8e02 f9bd 1fa2 003e eb59 8a3e 15a1 663d
00000260: 88ac 023e 2afd 77be 2f6d dbbd 665c 55be
00000270: 0af6 d7bd cd15 83bd 8353 e33d c4ad da3d
00000280: cdb0 ac3d eaf8 08be 9f37 5bbe b070 91bd
00000290: 95e4 48be 0c38 ac3c 03a7 00be db4b 6a3c
000002a0: af8d 61bd fda8 4d3e 6b75 d63a 416a 4a3e
000002b0: 32e8 6d3e 1527 2b3e 2a96 50be 2a11 b0bd
000002c0: 397d cfbd 751a bc3d 46a9 99bd 2384 d1bc
000002d0: d58c 6a3e 1779 483e a2cb 4c3e 1e0c 633c
000002e0: e00d 10bd a1cb a33d b87c aebd 746d 9b3e
000002f0: cbf7 a93e 39c1 c0be 8582 9b3d f197 193c
00000300: f61e 73be 9ee8 173d 6d71 cfbc a99e 323e
00000310: fa66 22bd d75b 0c3e a28d 89be 36d6 923c
00000320: 9891 d8bd fa79 f0bc 22d2 833e 695c 13bd
00000330: e56e 8cbd cabc e6bc c050 de3d 9fda 9b3d
00000340: 2111 7fbe 4adf 403c 18e5 663e 8769 813d
00000350: 8ef8 80bd 41b0 85bd a07d 5b3e eaec a13d
00000360: f619 993e 4d38 513e 9e76 26be 009a c7bd
00000370: abda d93d ef4d b13d 0897 383e 83e4 3b3c
00000380: 39bb 4fbe dc52 89be 42ae 38be 0261 74be
00000390: aa3d 5abe c21b 243d 62a2 6ebd 0fba 553e
000003a0: c813 d2bd d9f1 cdbd 2653 07be f880 b43c
000003b0: fc1c b0be 8cf8 273e 3fe3 853d ca31 45be
000003c0: 1ee1 cdbd 470c 9cbd 4e52 203e dcc0 20bd
000003d0: 40f3 60be 9643 aebc e95f 203e e89e 493e
000003e0: 6342 37bd 1a8b 2abd 9811 61be c4ff d8bd
000003f0: c4c5 2f3e a22c ffbd 4bcd 22bd dbbc 1e3e
-0.24197017 -0.22424169 0.07019365 0.19296141 0.0005292616 0.21618126 0.07029205 -0.32827047
0.19545995 0.24775693 -0.08725428 0.24687408 -0.12647559 0.0073568323 0.17005077 -0.347757
-0.22100072 0.18635249 0.06505103 -0.14263202 0.02940766 -0.15118727 0.16218968 0.19865155
0.026111593 -0.1326905 -0.121160455 0.032693632 0.3067552 0.143364 -0.15505248 -0.26608416
0.08292283 0.15968938 0.11609504 0.0076808045 -0.14181477 -0.13419844 0.18139447 -0.3475775
-0.0739099 -0.0337801 0.23566459 -0.09311992 0.041586164 0.016662972 0.261015 0.14226249
-0.10731986 0.12809652 -0.07311285 0.116308115 -0.17887974 -0.04931678 0.17569323 0.23470214
0.12528573 0.12577383 0.14025038 0.08950246 -0.06424619 -0.13642116 0.20267044 0.2712169
0.17028557 0.03126288 -0.2037605 -0.1335116 0.06409665 0.050761074 -0.08700396 -0.17071053
-0.00062093965 -0.16370161 -0.008935807 0.18643439 0.08446177 -0.032422084 0.31241152 -0.048886236
0.07496194 -0.1602333 -0.23759592 -0.22288503 0.16824083 -0.14965811 -0.21670698 -0.021383112
0.21231996 0.080504924 -0.21984363 -0.1316186 -0.35231513 0.30486414 -0.061193008 -0.011004182
-0.26537135 -0.031633474 -0.027112583 0.065084316 -0.1282856 -0.09604077 -0.10938133 0.2129021
0.17848597 0.17345688 -0.19861908 0.19049689 -0.0029389153 -0.01026662 -0.20622315 0.18695106
-0.055700026 0.006360277 -0.25548273 -0.034610372 0.05467182 0.20538385 0.1426009 0.114436775
0.21953571 0.1491625 0.20230322 -0.12754859 -0.206126 -0.1952991 0.22113813 0.092742205
-0.029130766 -0.1966214 -0.1075649 -0.025740633 -0.16351557 0.029575983 0.08263991 -0.13395615
-0.09303905 -0.05674331 -0.095390856 0.15524296 -0.23456752 0.26705566 0.0047034174 -0.15615833
0.23000148 -0.066288486 0.069128186 0.025962956 -0.121586904 0.12561844 0.27021727 0.056305964
0.12761128 -0.24217668 -0.107141845 -0.20836028 -0.10544975 -0.064006425 0.11099913 0.106776744
0.084321596 -0.13376203 -0.21407937 -0.071015716 -0.19618447 0.021022819 -0.1256371 0.014300312
-0.05506676 0.20083995 0.0016361898 0.19767095 0.23233107 0.16714127 -0.20369783 -0.08597024
-0.10131306 0.09184734 -0.075029895 -0.025575703 0.22905286 0.19577442 0.19999555 0.013857869
-0.035169482 0.079978235 -0.08519882 0.30356944 0.33196864 -0.37647417 0.07593254 0.009374605
-0.2374228 0.037087075 -0.02532264 0.17443337 -0.039648987 0.13706909 -0.2686587 0.01792441
-0.10574645 -0.029355038 0.25746256 -0.0359768 -0.06857089 -0.028166194 0.108552456 0.07610058
-0.24908878 0.011771986 0.2254833 0.06318956 -0.06297408 -0.065277584 0.21434641 0.07906516
0.2990262 0.20431633 -0.16256186 -0.0974617 0.10637411 0.08657443 0.18026364 0.011468056
-0.20286264 -0.2682103 -0.18035224 -0.2386513 -0.21312585 0.040065534 -0.05826033 0.20871757
-0.10257679 -0.100558944 -0.13215312 0.022034153 -0.34397113 0.16403407 0.065374844 -0.19257274
-0.10052703 -0.07619529 0.15656397 -0.039246425 -0.21967793 -0.021272462 0.15661587 0.19689524
-0.044741046 -0.041636564 -0.21979368 -0.105956584 0.17165285 -0.12459685 -0.039746564 0.1550173

1.10.bias f4 [12]
00000000: 4944 5bbe 2958 60be 570e 543d 6083 c9bd
00000010: 6d29 913d 6619 0b3c 70fc 673e 684a 59bd
00000020: 9173 33bb 93cc fb3d ff7b a03a b8fe c8bc
-0.21412767 -0.2190863 0.051771488 -0.09839511 0.070879795 0.008489942 0.22654891 -0.053049475
-0.0027382115 0.12294879 0.0012243985 -0.024535522

1.12.weight f4 [4, 12]
00000000: 9b91 083f c408 b53e e3a8 203e 017f dbbe
00000010: f2e3 ba3d 45af 1cbe 124c 14bf 81fa 263f
00000020: 8d32 693e 91e2 25bf 7bc3 c6be ab10 f7be
00000030: ba28 f63e 4c45 383f 7ad8 e1be 1fec 95be
00000040: 5cc1 00bf 01fe debd b295 e9be e25c d83e
00000050: 3554 b93e 837b 59be 06ad 3cbf 7d23 4c3d
00000060: 5ab3 ef3e f518 a23e 2afb 38be 7af4 bbbe
00000070: 9b70 b23d 707d 15bf b841 67be bf6b 2a3f
00000080: 8495 af3e 1887 fbbe 2158 0bbf b44d 8dbe
00000090: f052 313f 87f0 d23e f7b9 58be 47a3 0ebf
000000a0: b6e6 f7bb e7b2 b6be a837 13bf 5001 883e
000000b0: 7737 92bd 87b9 50be a9ed 34bf 3dc7 a3be
0.53347176 0.3535825 0.15689425 -0.42870334 0.09125508 -0.15301235 -0.57928574 0.6522599
0.2277319 -0.6479884 -0.38821015 -0.48254904 0.48077947 0.7198074 -0.4411047 -0.2928171
-0.50295043 -0.10888291 -0.4562202 0.42258364 0.36197057 -0.21238522 -0.7370151 0.04983853
0.46816522 0.31659666 -0.18064561 -0.36709958 0.08712884 -0.5839453 -0.22583663 0.6657066
0.3429376 -0.49126506 -0.5443135 -0.27598345 0.6926718 0.41199133 -0.2116469 -0.5571789
-0.0075653447 -0.35683367 -0.575068 0.265635 -0.07139485 -0.20383273 -0.7067514 -0.31987944

1.12.bias f4 [4]
00000000: 4d06 a6be 776c 27bf 9708 07bf 2304 ebbe
-0.32426682 -0.6539988 -0.5274748 -0.45901594
